checkpoint_critic0.pth (torch_old, 450684 bytes, 7 tensors)

fcs1.weight f4 [256, 48]
0	0x3d29ff32	0.04150314
1	0x3d7b4b9b	0.0613514
2	0xbbb39f2f	-0.0054816226
3	0x3d42c86a	0.04755441
4	0x3c51ceca	0.01280565
5	0xbc6602b5	-0.014038731
6	0xbccc3a11	-0.024930032
7	0xbd724bb0	-0.059154212
8	0x3c59da6e	0.013296707
9	0x3dd28d75	0.10280887
10	0x3d89e316	0.06732766
11	0x3d992981	0.07478619
12	0xbd183215	-0.037157137
13	0xbe0e07a6	-0.13870105
14	0xbd283607	-0.04106715
15	0x3c5a91f6	0.013340464
16	0x3d7cdd89	0.06173471
17	0x3dbe7be7	0.09300976
18	0xbd11ac2c	-0.035564587
19	0xbbbba745	-0.005726727
20	0xbe0acd5f	-0.13554905
21	0xbdfda838	-0.12385601
22	0xbd07a814	-0.033119276
23	0xbd71b8e5	-0.05901422
24	0x3b814f41	0.0039462154
25	0xbe25898a	-0.16165748
26	0x3d3c41ca	0.04596118
27	0xba861c1b	-0.0010231765
28	0x3c969899	0.018383311
29	0xbd39d2d0	-0.045367062
30	0xbcfdda4d	-0.030987883
31	0xbd797059	-0.06089816
32	0xbcbe2c38	-0.023214445
33	0xbd79d4d1	-0.060993973
34	0x3ca27210	0.01982978
35	0x3caa2d08	0.020773426
36	0x3d2a98eb	0.04164974
37	0xbd385937	-0.045006957
38	0xbbae8069	-0.0053253663
39	0x3d1f08df	0.03882682
40	0x3b27f2cc	0.0025626896
41	0xbe00fd39	-0.12596597
42	0xbd3be949	-0.045876775
43	0xbd679c8b	-0.056545775
44	0x3db89617	0.09013002
45	0xbdd019ab	-0.10161146
46	0x3d568a1f	0.052377816
47	0xbd37aec7	-0.044844415
48	0x3d0bd915	0.034142572
49	0x3dc24a15	0.09486786
50	0x3d1ea6eb	0.038733404
51	0x3c9ad9b3	0.018902635
52	0x3a2a03e0	0.0006485563
53	0x3d8c0f6b	0.06838878
54	0x3b25062c	0.002518068
55	0x3d679cf9	0.056546185
56	0xbd4bcd08	-0.04975608
57	0x3dd1f9c4	0.10252717
58	0xbd21f55d	-0.039540637
59	0x3d2cca17	0.042184915
60	0x3e1193ec	0.14216584
61	0xbca942dd	-0.020661766
62	0x3cc79bb3	0.024366235
63	0xbc732c54	-0.014842112
64	0xbdb3c702	-0.08778192
65	0x3e487df2	0.19579294
66	0xbca32de7	-0.019919349
67	0x3b87d056	0.0041447086
68	0x3e665630	0.22493815
69	0x3c79b81e	0.015241651
70	0x3c35f4f9	0.011105769
71	0x3be7c6a8	0.007073242
72	0x3d252eb7	0.040327754
73	0x3c0996e7	0.008397794
74	0x3ba31f4b	0.0049780956
75	0x39cb5773	0.00038784332
76	0xbda448db	-0.080217086
77	0x3d2671a3	0.040635716
78	0xbd6f8736	-0.058478557
79	0xbc236f34	-0.009975243
80	0x3c9e2cfa	0.019308556
81	0x3ccbd46f	0.02488157
82	0xba211ae0	-0.0006145667
83	0x3a8daef7	0.001080959
84	0xbdba6d94	-0.091029316
85	0xba77bd48	-0.00094505074
86	0x3c84efd8	0.016227648
87	0x3acb4c0e	0.0015510337
88	0xbd050e9a	-0.03248463
89	0xbdbdd3d1	-0.092689164
90	0xbcf9e722	-0.03050572
91	0x3c8ecfe4	0.017433114
92	0xbe83e3c2	-0.25759703
93	0x3d48c21a	0.049013235
94	0x3c0a3c8e	0.008437289
95	0x3d3f6a64	0.04673232
96	0x3da25581	0.07926465
97	0x3d1276f5	0.035757978
98	0x3add4092	0.0016880205
99	0x3d5f6bbc	0.054546103
100	0x3d49a9ed	0.04923432
101	0xbde3c6b5	-0.11121885
102	0x3ca17ad6	0.019711893
103	0xbbb35201	-0.005472422
104	0x3d1694bb	0.036762934
105	0xbba3cadf	-0.0049985494
106	0x3c3512c1	0.011051835
107	0xbdf694e7	-0.120401196
108	0xba3ad6fa	-0.0007127371
109	0xbda5fa19	-0.08104343
110	0xbd0dd86d	-0.034630228
111	0xbd4ef6e6	-0.05052843
112	0xbbab3404	-0.0052247066
113	0x3d87de1d	0.066341616
114	0xbd0eb86a	-0.03484384
115	0xbdaba1cf	-0.08380472
116	0xbd0afb11	-0.03393084
117	0xbe02be25	-0.12767847
118	0xbd66c51e	-0.05634033
119	0xbcc656fd	-0.024211401
120	0x3c190e56	0.009341797
121	0xbd415734	-0.047202304
122	0xbc7020fb	-0.014656301
123	0xbdb172e2	-0.0866449
124	0xbd8c76ef	-0.06858622
125	0xbdbec549	-0.09314973
126	0x3d59d22c	0.05317895
127	0x3a943bf9	0.0011309377
128	0xbd1566d3	-0.036475014
129	0xbe04e0ba	-0.12976351
130	0xbc2bd069	-0.010486701
131	0xbd89692a	-0.067095116
132	0xbd0efaa5	-0.034907002
133	0xbdddc969	-0.108294316
134	0x3c01af2a	0.0079152975
135	0x3c938575	0.018007973
136	0x3d8b650f	0.06806385
137	0xbd91d5d0	-0.071208596
138	0xbcf4fabb	-0.029904714
139	0xbbced2fa	-0.0063117715
140	0x3db4a7fd	0.08821104
141	0xbdfb81be	-0.12280606
142	0xbd8c6096	-0.0685436
143	0x3c6d1aeb	0.01447175
144	0x3c7be34f	0.015374019
145	0x3d8693e6	0.06571178
146	0x3d5b1e04	0.053495422
147	0x3cfc6185	0.03080822
148	0x3dfda735	0.12385408
149	0xbcd4c43b	-0.025972476
150	0xbd1be1a4	-0.038056985
151	0xbc91ce64	-0.01779861
152	0xbcbacd1b	-0.02280288
153	0x3ce3222a	0.027726252
154	0x3c29aacb	0.010355662
155	0x3dd11fa4	0.10211113
156	0xbb6ac447	-0.0035822557
157	0x3c4a990d	0.012365592
158	0x3d07296e	0.032998495
159	0x3d99acc6	0.07503657
160	0x3bb41c28	0.0054965205
161	0x3e1dff6d	0.15429468
162	0x3c65ad94	0.014018435
163	0x3d446e3d	0.047956694
164	0xbdc46347	-0.09589248
165	0xbd87691e	-0.066118464
166	0x3cd8c9c3	0.026463395
167	0x3d9983fa	0.07495876
168	0x3c6bd800	0.01439476
169	0x3d919a18	0.07109469
170	0x3c7090dc	0.014682975
171	0x3dd91d8a	0.10601337
172	0xbd95c1a5	-0.073123254
173	0x3da4d066	0.08047561
174	0x3cbd3f39	0.023101436
175	0x3cb1479e	0.021640595
176	0x3d893cad	0.06701026
177	0x3da8c1c3	0.08240082
178	0xbd117d14	-0.035519674
179	0x3d5d17a3	0.05397762
180	0xbd47b1d9	-0.048753593
181	0x3c576cb1	0.013148473
182	0x3c5ce959	0.013483369
183	0x3d87f9e4	0.0663946
184	0x3b488600	0.0030597448
185	0x3dcc6810	0.09980786
186	0xbc592b7e	-0.013254998
187	0x3c3c1c94	0.011481423
188	0x3df0cd4b	0.117579065
189	0xbdbba4a8	-0.09162265
190	0x3c5a7428	0.013333358
191	0xbd3ade2a	-0.04562203
192	0xbd175077	-0.03694197
193	0x3d9dc864	0.07704237
194	0x3d1dafe2	0.038497813
195	0x3b28eb51	0.0025775025
196	0x3d352fd3	0.04423506
197	0x3d371dc0	0.044706106
198	0xbc8fe366	-0.017564487
199	0xbd29e5bc	-0.041478857
200	0xbce5d06b	-0.028053483
201	0x3d910bd4	0.07082334
202	0xbc160ca0	-0.0091582835
203	0x3d0bd3cf	0.034137543
204	0x3d4b5bc6	0.04964807
205	0x3d37fde7	0.044919875
206	0xbd00697b	-0.031350594
207	0x3cfd433c	0.030915849
208	0x3d3f459d	0.046697248
209	0x3c90a919	0.017658757
210	0x3d0fcf2b	0.03510968
211	0x3ac7992d	0.0015228145
212	0x3e17ed78	0.14836681
213	0x3b506c7c	0.0031802943
214	0xbc897a18	-0.016781852
215	0x3d99ebf9	0.07515711
216	0x3dbb8b03	0.09157374
217	0x3e1d9b8d	0.15391369
218	0x3d564568	0.052312285
219	0x3cc3eb97	0.023916049
220	0xbd687703	-0.056754123
221	0x3d9ab610	0.07554257
222	0xbcee0d57	-0.029059095
223	0x3d1e0f31	0.038588706
224	0x3ddf7184	0.10910323
225	0x3dc120be	0.09430073
226	0x3d2178df	0.039421912
227	0xbc2908de	-0.0103170555
228	0xbcb25c21	-0.021772446
229	0x3c6785be	0.014131008
230	0xbd80b0a3	-0.06283691
231	0x3dd3b7a1	0.10337759
232	0x3e0b9402	0.13630679
233	0x3e5e54a1	0.21711971
234	0x3d3f8060	0.046753287
235	0xbb99d938	-0.004695084
236	0xbe1297c8	-0.14315712
237	0xbd9eafbe	-0.07748364
238	0xbd51b772	-0.051200338
239	0x3cb003e3	0.021486228
240	0x3d07a4e3	0.033116233
241	0xbdb6f4f9	-0.089334436
242	0x3d1f5a50	0.038904488
243	0x3c9af394	0.018914975
244	0xbdc36b64	-0.095419675
245	0xbdf281db	-0.11841174
246	0xbcc9c008	-0.0246277
247	0xbd2a1c4e	-0.0415309
248	0x3840d091	4.597061e-05
249	0xbd06fa48	-0.03295353
250	0x3cb5c75b	0.022189787
251	0xbd522a15	-0.051309664
252	0xbd93af19	-0.072111316
253	0xbdab568c	-0.08366117
254	0xbcfb9c16	-0.030714076
255	0xbcb88bdb	-0.022527626

fcs1.bias f4 [256]
0	0xbd073fa5	-0.03301968
1	0xbc54b963	-0.012983653
2	0x3d817887	0.06321817
3	0x3dacf3b6	0.08444922
4	0x3d9797f7	0.07402032
5	0x3d8ea70b	0.06965455
6	0xbdb7c9ff	-0.089740746
7	0xbd6cd302	-0.05781842
8	0x3d19b6ad	0.03752773
9	0x3d43019b	0.047608953
10	0xbd6bc0f2	-0.057557054
11	0xbce047b0	-0.027377933
12	0x3d9039a6	0.070422456
13	0x3e09cab5	0.13456233
14	0xbe5fbdd2	-0.21849754
15	0xbe070b0c	-0.13187808
16	0x3db6a835	0.08918802
17	0x3d8ace29	0.06777603
18	0x3da9aaa2	0.08284499
19	0x3de6571d	0.11247084
20	0xbd9d912e	-0.076937065
21	0xbde989a9	-0.1140321
22	0xbd3e7958	-0.04650244
23	0xbd3feaa0	-0.046854615
24	0xbdda994e	-0.10673772
25	0xbd67a41e	-0.056553
26	0x3ca95378	0.020669684
27	0xb9c2121c	-0.00037016056
28	0x3d8526f0	0.06501567
29	0xbdf9908a	-0.12185772
30	0xbda5053e	-0.080576405
31	0xbdfc5c5d	-0.123223044
32	0x3c0d75c1	0.008634032
33	0xbddfd8f7	-0.10930055
34	0x3dc2e0df	0.09515547
35	0x3d290a24	0.041269436
36	0xbc1e11e7	-0.009647823
37	0x3db76d7a	0.08956428
38	0xbdd94695	-0.106091656
39	0xbda44bf8	-0.080223024
40	0x3cc23fdc	0.023712091
41	0x3dc35c62	0.09539105
42	0x3ddd761e	0.10813545
43	0x3d767ce1	0.060177688
44	0xbd1ff270	-0.039049566
45	0x3ce46381	0.027879478
46	0x3db59090	0.08865464
47	0x3c459194	0.012058634
48	0xbe236f8e	-0.15960523
49	0x3d6490d9	0.0558022
50	0xbd7d4d37	-0.061841216
51	0x3c411367	0.011784411
52	0x3d893216	0.06699006
53	0xbcfaff35	-0.03063927
54	0x3de48695	0.11158482
55	0xbdbd0eba	-0.092313245
56	0xbe0d13d8	-0.13777101
57	0xbda0bd45	-0.078486
58	0xbc972668	-0.01845093
59	0xbdbf9629	-0.09354813
60	0xbe0a7976	-0.13522896
61	0xbde78906	-0.11305432
62	0xbe2bfbf7	-0.16795336
63	0xbd895d2f	-0.067072265
64	0xbd982ff4	-0.07431021
65	0x3cde6693	0.02714852
66	0x3d9ed148	0.07754761
67	0xbcb34931	-0.021885486
68	0xbda1b36a	-0.07895549
69	0xbd33df51	-0.043914143
70	0x3ce78b07	0.028264536
71	0x3da89014	0.08230606
72	0xbdeae1d0	-0.114688516
73	0x3dbe0cc1	0.09279776
74	0xbcd93f81	-0.026519539
75	0x3d8401c8	0.06445652
76	0x3d22d41a	0.039753057
77	0xbdb59b5a	-0.088675216
78	0xbc121647	-0.008916444
79	0xbe086418	-0.13319433
80	0x3c00f613	0.007871169
81	0xbe06afaf	-0.13152955
82	0xbdb413dd	-0.08792851
83	0x3ca24b65	0.019811342
84	0xbd001e0d	-0.03127866
85	0xbe518ba9	-0.20463432
86	0x3e0c977c	0.13729662
87	0xbdd518c6	-0.10405116
88	0xbe31b1c6	-0.17352971
89	0x3d330252	0.043703385
90	0xbdfb1ccc	-0.12261352
91	0xbc295288	-0.010334618
92	0xbd08ef92	-0.033431597
93	0xbe17d9b9	-0.14829148
94	0x3ce4fce1	0.027952613
95	0x3dc1ee16	0.094692394
96	0x3e0ec874	0.13943654
97	0x3dc30226	0.09521894
98	0xbe4e22cf	-0.20130466
99	0xbd28c988	-0.04120782
100	0xbd4cc2c7	-0.04999044
101	0x3d26d8be	0.040734045
102	0xbba01ffa	-0.0048866244
103	0x3da75b1d	0.08171675
104	0x3dc6205b	0.0967414
105	0x3d0ed23f	0.034868475
106	0xbccc40d6	-0.02493326
107	0x3c738ae4	0.014864657
108	0x3dcb291e	0.09919952
109	0x392e40df	0.000166181
110	0xbc351bbc	-0.011053976
111	0x3d51012a	0.0510265
112	0x3d8d05f4	0.06885901
113	0x3dc810c8	0.09768826
114	0x3db8a560	0.09015918
115	0x3dca3177	0.09872716
116	0xbd5b576e	-0.053550176
117	0x3dc5986b	0.09648212
118	0xbe35efee	-0.17767307
119	0x3d0b7503	0.034047138
120	0xbe377bb1	-0.17918278
121	0xbd17cdc1	-0.037061457
122	0xbdf22625	-0.11823682
123	0xbe1cf70b	-0.15328614
124	0xbe12339d	-0.14277501
125	0xbe48301f	-0.19549607
126	0xbd498e6b	-0.049208086
127	0x3c4a773f	0.012357532
128	0xbe22dc7f	-0.15904425
129	0xbdfe926f	-0.12430274
130	0xbd3088f2	-0.04309935
131	0x3d29065e	0.041265838
132	0xbdd3a5bc	-0.10334346
133	0xbe20b7d8	-0.15695131
134	0xbaefa4f8	-0.0018283417
135	0x3cf00d25	0.029303143
136	0xbe1f8983	-0.155798
137	0xbc77b972	-0.015119897
138	0xbe2c023f	-0.16797732
139	0xbe3a2b90	-0.1818068
140	0xbd259775	-0.040427644
141	0x3de7afa9	0.113128014
142	0x3d85176a	0.064986065
143	0xbe00f6f1	-0.125942
144	0xbddd2506	-0.10798077
145	0xbde56381	-0.112006195
146	0x3cff61f3	0.031174636
147	0x3d8aac61	0.0677116
148	0x3cb37a63	0.021908944
149	0xbdb4b03d	-0.08822677
150	0xbd1d538b	-0.03840975
151	0x3d2ad75f	0.0417093
152	0xbe040271	-0.12891556
153	0x3db6bc4a	0.08922632
154	0x3ce07d33	0.02740345
155	0x3c72b67a	0.014814014
156	0xbcda2961	-0.02663106
157	0xbc295585	-0.010335331
158	0x3c4b2fd9	0.0124015445
159	0xbdb3506a	-0.08755572
160	0xbdf4a6fd	-0.11945913
161	0x3dbd84dc	0.092538565
162	0x3ca95f83	0.020675426
163	0xbd94fff9	-0.072753854
164	0xbb70c229	-0.0036736822
165	0xbe00ec0e	-0.12590048
166	0x3d669243	0.05629183
167	0xbe2e31f6	-0.17011246
168	0xbdcc49f4	-0.09975043
169	0x3dcd263d	0.10017059
170	0xbbe5ebd7	-0.0070166397
171	0xbd7dc0c7	-0.061951425
172	0x3d55288e	0.05204063
173	0x3d321261	0.04347456
174	0xbd9e013b	-0.077150784
175	0x3d72a578	0.059239835
176	0x3db2ebaa	0.087363556
177	0x3d341c8c	0.043972537
178	0x3e1f1e61	0.15538932
179	0xbdceb616	-0.10093324
180	0xbdb94816	-0.090469524
181	0xbd69993e	-0.05703091
182	0xbd90c82a	-0.07069428
183	0x3d983118	0.07431239
184	0x3d42edd6	0.0475901
185	0xbdbb8921	-0.09157015
186	0xbdfb1e5a	-0.122616485
187	0xbdd58fa1	-0.10427786
188	0x3d957497	0.072976284
189	0xbdbc984a	-0.09208734
190	0x3d63d563	0.055623423
191	0xbdfb67b7	-0.122756414
192	0xbd4369d0	-0.047708333
193	0xbd8ffee9	-0.07031042
194	0xbde1d658	-0.11027211
195	0x3c051a9e	0.008124022
196	0xbd463d76	-0.048398457
197	0xbcfeba69	-0.031094747
198	0x3d897af0	0.067129016
199	0x3d6611f6	0.056169473
200	0x3a74b767	0.00093351904
201	0xbd1344e7	-0.035954382
202	0xbdce0ced	-0.10061059
203	0xbe25a384	-0.16175658
204	0x3e069fee	0.13146946
205	0x3dc64385	0.09680847
206	0x3d07a4d2	0.03311617
207	0x3cb75971	0.022381516
208	0xbe1590b8	-0.14605987
209	0xbd38c5d7	-0.04511055
210	0xbe25dfc3	-0.1619864
211	0xbd6b7ace	-0.057490163
212	0xbde93739	-0.11387486
213	0xbb87ab1f	-0.0041402723
214	0x3aad0c6a	0.0013202552
215	0xbe12d4b2	-0.1433895
216	0xbded7518	-0.115945995
217	0xbe08b8bf	-0.13351725
218	0x3d82fbf6	0.06395714
219	0x3d8d9302	0.06912805
220	0xbe0c9d53	-0.1373189
221	0xbe41dca5	-0.18931825
222	0xbcbaba4d	-0.022793913
223	0xbd2e23c2	-0.04251457
224	0x3d3db136	0.04631158
225	0xbe3f4886	-0.18680009
226	0xbe0cc7a9	-0.1374804
227	0x3db5c5c3	0.08875611
228	0xbb93a527	-0.0045057717
229	0x3c4a8152	0.012359934
230	0x3e05f523	0.13081793
231	0x3daea08a	0.08526714
232	0xbe138710	-0.14406991
233	0xbd67b041	-0.056564573
234	0x3ccc70f2	0.0249562
235	0xbdf3a455	-0.11896578
236	0x3d0504a7	0.03247514
237	0xbd15a5d2	-0.03653509
238	0x3dfe142e	0.12406193
239	0x3defd914	0.11711326
240	0x3dcb4703	0.09925654
241	0x3dd1a8e3	0.10237291
242	0x3d8a709c	0.0675976
243	0xbe42203c	-0.18957609
244	0x3c7fcfcd	0.015613508
245	0xbe5520d2	-0.20813301
246	0x3c96cd69	0.018408494
247	0xbda0770c	-0.078352064
248	0x3e1ce59c	0.15321964
249	0xbcd2f163	-0.025749868
250	0x3de666c4	0.1125007
251	0x3d5c9d56	0.053860985
252	0xbc06b49b	-0.008221771
253	0xbd868ff5	-0.065704264
254	0x3cb6a44e	0.022295143
255	0xbd9f3aed	-0.07774911

fc2.weight f4 [256, 260]
0	0xbd8db63d	-0.06919525
1	0x3d5659b3	0.052331638
2	0xbcbcd62b	-0.023051342
3	0x3af82b91	0.0018933882
4	0xbd550f34	-0.052016452
5	0xbcf99c8b	-0.030470153
6	0x3d310ce9	0.043225203
7	0xbe0499a1	-0.1294923
8	0xbde34733	-0.110975645
9	0xbd9ac51f	-0.07557129
10	0x3ce5d04c	0.028053425
11	0xbb8d2cfb	-0.0043083406
12	0x3bd6bf56	0.0065535707
13	0xbd44fed6	-0.048094593
14	0xbdd9019b	-0.10596009
15	0xbb27c642	-0.0025600349
16	0x3d84d80c	0.0648652
17	0x3c0b2efc	0.008495089
18	0x3dbb6545	0.09150175
19	0xbd3710ee	-0.04469388
20	0x3cda6893	0.026661193
21	0x3cc2d0f1	0.023781272
22	0xbda9b48d	-0.082863905
23	0xbd569c73	-0.052395295
24	0xbd9406cb	-0.07227858
25	0xbd207edb	-0.03918348
26	0xbd5e0e4b	-0.05421285
27	0xbd387f52	-0.045043297
28	0xbd31aea7	-0.043379452
29	0xbdca4403	-0.098762535
30	0xbdf7968f	-0.12089264
31	0xbd2fa771	-0.042884294
32	0xbd6c69fd	-0.057718266
33	0xbc8db258	-0.017296955
34	0xbdc13ed9	-0.09435815
35	0xbc658ec6	-0.014011091
36	0x3cc02c74	0.023458697
37	0xbccc92ae	-0.024972286
38	0xbd005826	-0.031334065
39	0x3daa897d	0.08327005
40	0x3d9e5af7	0.07732194
41	0xbd2b5195	-0.04182585
42	0x3cff5c5a	0.031171966
43	0xbcab4438	-0.020906553
44	0x3d73f45a	0.059559204
45	0xbb60bc4d	-0.0034291924
46	0xbcfda40d	-0.030962015
47	0xbd00683b	-0.031349402
48	0xbc01b253	-0.007916051
49	0xbd08cdd2	-0.03339941
50	0x3bc6bc87	0.0060649547
51	0xbcc8aae9	-0.024495559
52	0xbdb4ee27	-0.088344865
53	0x3c2fca12	0.01072933
54	0x3c665193	0.014057535
55	0x3cbbe530	0.022936434
56	0xbe12d378	-0.14338481
57	0x3bb70bda	0.0055861296
58	0xbddf8434	-0.109138876
59	0xbdbd5a3f	-0.09245729
60	0x3ce44089	0.027862804
61	0x3cff31c3	0.031151658
62	0xbcd4e24c	-0.025986813
63	0x3cbe428c	0.023225091
64	0x3d3b68d0	0.045754254
65	0x3d7621e4	0.060090914
66	0x3d2e94a8	0.04262224
67	0xbc1b182e	-0.009466214
68	0xbe00f58e	-0.12593672
69	0x3d97f9f9	0.074207254
70	0xbdc5ea98	-0.09663886
71	0xbddc0d45	-0.107447185
72	0xbb251c3c	-0.002519383
73	0xbd4028f0	-0.04691404
74	0x3d1314b2	0.03590841
75	0x3d1adb69	0.037806902
76	0xbdce263a	-0.10065885
77	0xbbf170a9	-0.0073681665
78	0xbd5e1355	-0.054217655
79	0xbd096117	-0.033539858
80	0xbd37a91f	-0.04483902
81	0x3be59ecc	0.0070074555
82	0x3c97aaff	0.018514154
83	0xbc5fa351	-0.0136497775
84	0x3d440eef	0.047865804
85	0x3d141675	0.03615423
86	0xbdb17141	-0.086641796
87	0x3deeaa05	0.116535224
88	0xbc86075f	-0.016360937
89	0xbda3ea67	-0.08003693
90	0xbc34aefb	-0.011028047
91	0xbcae2b09	-0.021260755
92	0xbdb2897b	-0.087176286
93	0x3df585f3	0.119884394
94	0xbd35b85e	-0.04436528
95	0xbd827858	-0.0637061
96	0xbdea64bc	-0.11444995
97	0xbe6a944e	-0.22908136
98	0x3be4fc91	0.006988116
99	0xbd1432d7	-0.036181297
100	0xbd802961	-0.062578924
101	0xbddf6e19	-0.10909671
102	0xbdd0f842	-0.102036014
103	0xbda1a143	-0.07892086
104	0x3d40edc2	0.047101744
105	0xbdb51e9b	-0.08843728
106	0x3d369eaa	0.044584908
107	0x3c9b4da2	0.018957917
108	0x3ad65f83	0.0016355369
109	0xbdc6d0be	-0.09707783
110	0xbd262615	-0.04056366
111	0xbd63514c	-0.055497453
112	0xbbd6db3b	-0.006556896
113	0xbd1d59de	-0.038415782
114	0xbc86dbc5	-0.016462216
115	0x3dc73da0	0.09728551
116	0xbd3c6472	-0.04599423
117	0xbd9302be	-0.071782574
118	0xbe077102	-0.13226703
119	0xbe002e7c	-0.12517732
120	0xbce6a05a	-0.028152633
121	0x3cc7d48a	0.024393339
122	0x3c7cf19b	0.015438463
123	0x3b47bc1f	0.003047712
124	0x3d0875d6	0.033315502
125	0xbd450249	-0.048097882
126	0x3d556626	0.05209937
127	0xbdba3f04	-0.090940505
128	0x3c55f005	0.013057713
129	0xbc80c707	-0.015719904
130	0x3d0c9440	0.03432107
131	0xbaa42040	-0.0012521818
132	0xbd2e82a5	-0.04260506
133	0xbd9ebb8d	-0.07750616
134	0xbd2c3fb5	-0.042052943
135	0xbd2c9f69	-0.042144213
136	0xbc1c8634	-0.009553481
137	0xbdc10afd	-0.09425924
138	0xbd25ab20	-0.0404464
139	0xbdcfc14b	-0.101442896
140	0xbca97642	-0.020686273
141	0x3d49847a	0.049198605
142	0x3dd19c9c	0.10234949
143	0x3c3a2908	0.011362322
144	0xbd1b4f56	-0.037917458
145	0xbd4d9c70	-0.05019802
146	0xbc8e5283	-0.017373329
147	0x3d501388	0.050799876
148	0x3c93ba22	0.018033091
149	0x3d659866	0.05605354
150	0xbc4243ef	-0.011857017
151	0xbe4cb74e	-0.199918
152	0xbd41e9c8	-0.04734209
153	0xbd7b46cd	-0.061346818
154	0x3d0b5b59	0.034022663
155	0xbd42b6c9	-0.0475376
156	0x3c8e0222	0.017335001
157	0x3d244d83	0.040112983
158	0xbe00f7c4	-0.12594515
159	0x3d20620a	0.039155997
160	0x3c122568	0.008920051
161	0x3d15d201	0.03657723
162	0x3d2cc991	0.042184416
163	0xbdd98226	-0.10620527
164	0x3d081b52	0.03322918
165	0x3d4285d6	0.047490917
166	0x3d22a751	0.039710347
167	0xbdf4ef16	-0.119596645
168	0x3c94871a	0.018130828
169	0xbc8f23c6	-0.017473113
170	0x3d003add	0.031306136
171	0xbd2bfcc3	-0.0419891
172	0xbdcc9060	-0.09988475
173	0xbc9cf98d	-0.019161964
174	0xbd3ef416	-0.046619497
175	0x3ac67f9c	0.0015144232
176	0x3d3e52ee	0.046465807
177	0xbdd733aa	-0.10507901
178	0x3d917049	0.07101495
179	0xbd92ad89	-0.071620055
180	0xbd2ec9f9	-0.042673085
181	0xbd300fc6	-0.042983793
182	0xbb8e62bb	-0.0043452657
183	0x3d830029	0.06396515
184	0x3c89ef7f	0.016837833
185	0x3d483bac	0.048885033
186	0x3bfb6c11	0.0076727946
187	0xbc4879c3	-0.0122360615
188	0xbba29034	-0.004961038
189	0x3d5a8451	0.053348843
190	0xbdcaa1c9	-0.09894139
191	0xbb91df48	-0.004451666
192	0xbbe3a01f	-0.006946578
193	0xbd0c784c	-0.03429441
194	0xbcde879e	-0.027164277
195	0x3d2c3935	0.042046744
196	0x3d83e99e	0.06441043
197	0xbd837e21	-0.064205416
198	0x3d68424b	0.056703847
199	0x3ced1829	0.028942185
200	0x3daa5907	0.08317762
201	0x3da8a1b2	0.08233966
202	0x3c54ec70	0.012995824
203	0xbd2bc80d	-0.04193883
204	0xbc9d81b5	-0.019226888
205	0xbdb0260c	-0.08601007
206	0xbdc6b34d	-0.09702168
207	0x3cc32e32	0.023825739
208	0xbd39b654	-0.045339897
209	0xbd8e049d	-0.06934474
210	0xbd4bc3c9	-0.049747262
211	0x3d10b081	0.035324577
212	0x3d120534	0.035649493
213	0x3d314200	0.043275833
214	0xbcbb95d2	-0.022898588
215	0x3cbbd7ab	0.022929987
216	0xbbc7ab4e	-0.006093419
217	0x3d6aa195	0.057283003
218	0x3d4de8d2	0.050270863
219	0xbd4e6e4c	-0.050398156
220	0x3cc109b7	0.023564203
221	0x3d578668	0.052618414
222	0x3c0d6ebf	0.008632361
223	0xbe332478	-0.1749438
224	0x3b351f55	0.0027637084
225	0xbd78e615	-0.0607663
226	0xbb2dcb38	-0.0026518833
227	0xbbe6a487	-0.007038656
228	0x3d1ac10b	0.037781756
229	0xbd0d7b62	-0.034541495
230	0xbd61b9b3	-0.055108737
231	0xbd351256	-0.04420694
232	0xbd92f08e	-0.071747884
233	0xbc3b2ea4	-0.011424694
234	0xbe1f2a6c	-0.15543526
235	0xbe1b7691	-0.15181948
236	0x3d6ce2b9	0.057833407
237	0xbdc22d8f	-0.09481346
238	0x3de88b08	0.11354643
239	0xbd6507ff	-0.05591583
240	0xbd80841c	-0.06275198
241	0x3d2b35ff	0.04179954
242	0x3ba3b22f	0.0049956064
243	0xbd2d7af3	-0.04235358
244	0xba37e0f0	-0.00070144143
245	0xbc5b31a9	-0.013378539
246	0xbc7f420d	-0.015579713
247	0xba41d4df	-0.0007394086
248	0xbd85bd88	-0.06530291
249	0xbe3eb4ea	-0.186237
250	0x3c460839	0.012086921
251	0x3cd7a8ab	0.026325544
252	0x3d7fce3a	0.062452532
253	0xbcdcd59b	-0.026957324
254	0xbcc4a26c	-0.02400323
255	0x3d84e986	0.064898536

fc2.bias f4 [256]
0	0xbba42b4a	-0.0050100433
1	0x3d6f2b2a	0.058390774
2	0x3d32309d	0.043503392
3	0x3dc9cdc5	0.098537005
4	0x3c8cce3b	0.017188182
5	0xbd3490aa	-0.044083275
6	0x3d1241e7	0.03570738
7	0x3d465555	0.048421223
8	0x3c9aca94	0.018895425
9	0x3cb24362	0.021760646
10	0x3c105742	0.008809866
11	0xbdeb73ea	-0.11496718
12	0x3d1e14f3	0.038594197
13	0xbaf013be	-0.001831643
14	0xbd2d2603	-0.04227258
15	0x3d7cc1f3	0.061708402
16	0x3c92802d	0.017883385
17	0x3d798622	0.060918935
18	0xbdd2840d	-0.10279093
19	0xbd627417	-0.055286493
20	0x3daa51b5	0.08316366
21	0xbc0dcca3	-0.008654746
22	0x3cf02092	0.029312406
23	0xbcc9c406	-0.024629604
24	0xbd505858	-0.0508655
25	0xbc9f8134	-0.019470789
26	0x3abc3444	0.0014358838
27	0xbca8221b	-0.020524075
28	0xbcc33c47	-0.023832453
29	0x3bb8ce48	0.005639825
30	0x3d3de081	0.04635668
31	0xbd606c32	-0.054790683
32	0x3d9626f4	0.073316485
33	0x3b622eda	0.003451279
34	0x3d255439	0.040363524
35	0x3d65d562	0.0561117
36	0x3bd07a6a	0.006362249
37	0x3d123265	0.03569259
38	0x3c0fe737	0.008783153
39	0x3c32b5bf	0.010907589
40	0xbd6f04f9	-0.05835435
41	0x3a0b7f06	0.0005321357
42	0xbd4e802b	-0.0504152
43	0x3d23970d	0.039938975
44	0x3c25e0a5	0.01012436
45	0xbd0686d8	-0.03284344
46	0xbce6c945	-0.028172145
47	0xbd7224a0	-0.05911696
48	0xbd96b839	-0.073593564
49	0xbd8c178d	-0.068404295
50	0x3c3030fc	0.010753866
51	0xbd70a083	-0.058746826
52	0xbc36a5f1	-0.011147962
53	0xbd717ad1	-0.058955017
54	0x3c03a67a	0.008035297
55	0xbc8283b3	-0.01593194
56	0xbda98936	-0.08278124
57	0x3cb5e380	0.022203207
58	0x3c8f056b	0.017458638
59	0xbbcfc2c8	-0.0063403584
60	0xbd91ca81	-0.07118703
61	0x3d1a3a77	0.037653413
62	0x3d4fa9f5	0.050699193
63	0x3d355c11	0.044277254
64	0xbba4e265	-0.005031871
65	0xbcada56d	-0.021197045
66	0x3d3badee	0.04582017
67	0xbd8ebee8	-0.06970006
68	0x3d47e4de	0.04880225
69	0xbb61e090	-0.0034466125
70	0xbcf0adae	-0.029379692
71	0xbbc4eba5	-0.0060095363
72	0x3cc29366	0.023751926
73	0x3dae761c	0.08518621
74	0xbda8a2d4	-0.08234182
75	0x3d6f9130	0.05848807
76	0xbd80d2ca	-0.06290205
77	0xbd0497a4	-0.03237118
78	0xbd0e4c69	-0.03474084
79	0xbcbcf291	-0.023064883
80	0x3d0ceeaa	0.034407295
81	0xbcadf33f	-0.021234153
82	0x3c52b2b7	0.012859992
83	0xbdab24f4	-0.083566576
84	0x3cd068df	0.025440631
85	0x3c1e50ef	0.009662851
86	0x3c04d1d0	0.008106664
87	0xbc8cee2f	-0.017203419
88	0x3d218dc4	0.03944184
89	0xbcc98822	-0.024601046
90	0xbcbce1bf	-0.023056863
91	0x3ce312ae	0.027718868
92	0x3bc5e019	0.0060386774
93	0xbd6e0335	-0.058108527
94	0xbd83b0b0	-0.06430185
95	0xbc47b7a4	-0.012189779
96	0xbd449f9c	-0.048003778
97	0x3d83b2a5	0.06430558
98	0xbcb3a9ba	-0.021931518
99	0xbccb1ba4	-0.024793454
100	0xbd40e91c	-0.04709731
101	0x3b0133f8	0.0019714814
102	0x3d201672	0.039083906
103	0xbd8d2eec	-0.06893715
104	0x3d2927ab	0.041297596
105	0x3ce63c46	0.028104912
106	0xbcd32eda	-0.025779177
107	0x3aa80827	0.0012819812
108	0xbc17dbee	-0.009268744
109	0xbd80ebc8	-0.06294972
110	0x3acdafea	0.0015692685
111	0x3c04c521	0.00810364
112	0x3d063329	0.032763634
113	0x3cd74a11	0.026280435
114	0xbce17784	-0.02752281
115	0xbd90b7d2	-0.07066311
116	0x3cea0c77	0.028570397
117	0xbd75b09f	-0.059982892
118	0x3d5ed697	0.054403868
119	0x3cda5a68	0.026654437
120	0xbd22dc9f	-0.039761182
121	0xbd02c3e5	-0.0319251
122	0xbc821e1c	-0.015883498
123	0x3ce6c98a	0.028172273
124	0x3c86c9e9	0.0164537
125	0x3d3b8e5c	0.04579006
126	0x3abdea58	0.0014489396
127	0xbca10fdf	-0.019660888
128	0xbd00e251	-0.031465832
129	0x3d30d006	0.043167137
130	0x3d720ba0	0.059093118
131	0xbd8061bb	-0.062686406
132	0x3ca0f273	0.019646859
133	0xbc7a53ac	-0.015278738
134	0x3b1d8d71	0.0024040604
135	0xbb9d3ff5	-0.004798884
136	0x3d93d9eb	0.07219299
137	0xbd1c5271	-0.03816456
138	0x3c42dede	0.011893956
139	0x3bfe042c	0.007751962
140	0x3da96f0d	0.082731344
141	0xbc4e3e7f	-0.012588142
142	0x3c9314e6	0.017954301
143	0xbcacf492	-0.021112714
144	0xbc94a0e7	-0.01814313
145	0x3c17ed63	0.009272906
146	0xbc63c934	-0.013902951
147	0x3daf656c	0.085642666
148	0x3c11bafe	0.00889468
149	0x3d8579ca	0.0651737
150	0x3d5ec562	0.054387458
151	0xbdd2cd69	-0.10293085
152	0xbd03c4fe	-0.03217029
153	0xbcc966f9	-0.024585234
154	0xbd5df9fd	-0.054193486
155	0xbb61f8c9	-0.0034480563
156	0x3c839778	0.016063437
157	0x3cf17980	0.029476881
158	0xbd83157a	-0.06400581
159	0xbd2de4bb	-0.042454462
160	0x3cfd4e36	0.030921083
161	0xbc8c05ab	-0.017092546
162	0xbcfcb88c	-0.030849718
163	0x3c0c1b7d	0.008551476
164	0xbcec6d8e	-0.028860833
165	0x3d2cadf4	0.042158082
166	0xbcb5e261	-0.022202672
167	0xbd199273	-0.03749318
168	0xbd67a09f	-0.056549665
169	0xbd4d8981	-0.050179962
170	0x3dd674b7	0.1047148
171	0x3d8d5c41	0.06902362
172	0x3d128ca1	0.035778645
173	0xbc674e89	-0.014117845
174	0x3bc4b177	0.006002601
175	0xbd6cc4a1	-0.057804707
176	0xbc1e2ba3	-0.0096539585
177	0x3d2b85f5	0.0418758
178	0xbd45964b	-0.048239034
179	0xbd9c418f	-0.07629692
180	0xbd1f3197	-0.038865652
181	0x3b73b984	0.0037189433
182	0x3d2ab5cc	0.04167728
183	0x3c2e5b80	0.0106419325
184	0xbd802c27	-0.062584214
185	0xbd4ef143	-0.050523054
186	0x3d80af6f	0.06283461
187	0xbdb78939	-0.0896172
188	0x3d8ee4cc	0.06977233
189	0x3cbd5ce9	0.023115592
190	0x3d5a46dc	0.053290233
191	0xbd77429d	-0.06036626
192	0xbd776b91	-0.060405318
193	0xbc633823	-0.0138683645
194	0x3d617897	0.055046644
195	0xbd3c22d2	-0.045931645
196	0xbc3f4c1c	-0.011675861
197	0xbbc0533a	-0.0058692964
198	0xbd7c63f5	-0.061618764
199	0xbdbd1b17	-0.092336826
200	0x3d50e2d4	0.05099757
201	0x3d644f07	0.05573943
202	0xbcc43ca0	-0.02395469
203	0x3c82a889	0.015949504
204	0xbd66e749	-0.056372914
205	0xbcaa79b1	-0.02080998
206	0x3c3326e5	0.010934566
207	0x3d6ce653	0.05783684
208	0x3d97e2ac	0.07416281
209	0xbbed9439	-0.0072503355
210	0x3d809f8d	0.06280432
211	0xbc9b5997	-0.018963618
212	0xbd00f6e7	-0.031485464
213	0xbca476bd	-0.02007615
214	0xbae697e4	-0.0017592874
215	0x3d1af509	0.03783134
216	0x3d971e84	0.07378867
217	0xbd08e69f	-0.033423062
218	0x3c0ab5dd	0.008466211
219	0xbd92b836	-0.07164042
220	0xbd8fdcc2	-0.07024528
221	0xbca81bd0	-0.020521075
222	0x3d9622ed	0.0733088
223	0xbccdb9a2	-0.02511293
224	0x3d1ec987	0.03876641
225	0x3b79e365	0.0038129922
226	0xbb48882c	-0.0030598743
227	0x3d4e58a8	0.050377518
228	0x3d9d5515	0.07682244
229	0xbd83df75	-0.064391054
230	0x3d90e394	0.07074657
231	0x3d310a58	0.043222755
232	0xbd6454b8	-0.055744857
233	0x3a9cfe78	0.0011977693
234	0xbcac6353	-0.021043455
235	0x3d116ddc	0.03550516
236	0x3d8e7b3e	0.069571
237	0x3d4a3f15	0.049376566
238	0x3bb52821	0.0055284654
239	0xbd28bb4f	-0.041194256
240	0xbcf16a0c	-0.029469512
241	0xbc45963f	-0.012059747
242	0x3cc44563	0.023958867
243	0xbc89dfad	-0.01683029
244	0xbc880e43	-0.016608363
245	0xbd7c53a7	-0.061603215
246	0xbd665227	-0.05623069
247	0xbd84678a	-0.06465061
248	0xbb9be5c4	-0.004757615
249	0x3cc5b3d0	0.024133593
250	0xbb3786ad	-0.0028003857
251	0x3c5c3289	0.013439783
252	0xbd69fc3b	-0.05712531
253	0xbd100d95	-0.035169203
254	0x3d0be5dd	0.03415476
255	0xbc998d2e	-0.018744078

fc3.weight f4 [128, 256]
0	0xbd753b9a	-0.059871294
1	0xbd87e00f	-0.06634533
2	0xbc975b78	-0.018476233
3	0x3c62770e	0.01382233
4	0xbcd920d5	-0.026504913
5	0xbd8b4688	-0.06800562
6	0xbcf879da	-0.03033154
7	0xbbc49240	-0.0059988797
8	0x3caf705d	0.021415884
9	0x3c58d8cd	0.013235283
10	0xbd745205	-0.059648532
11	0xbd8687eb	-0.06568893
12	0xbb8b2264	-0.004246043
13	0x3d063206	0.03276255
14	0xbd3fbccf	-0.04681092
15	0xbc481d16	-0.012213966
16	0xbd8c6494	-0.06855121
17	0xbd3dae4a	-0.046308793
18	0xbd87b4e6	-0.066263005
19	0xbd2ea89c	-0.042641267
20	0x3d361af1	0.044459287
21	0x3ce36bea	0.027761418
22	0x3c8aa87b	0.01692604
23	0xbd200b44	-0.039073244
24	0xbe56fa0a	-0.2099382
25	0x3d303dbb	0.04302762
26	0xbc4fa4e4	-0.01267359
27	0xbd15887c	-0.036507115
28	0x3c0d7020	0.00863269
29	0x3cc39337	0.023873908
30	0x3d4c0fa4	0.049819604
31	0x3cbc31e1	0.022973003
32	0x3d49232a	0.0491058
33	0xbc889efa	-0.016677368
34	0xbde441f2	-0.111453906
35	0xbd94a92d	-0.0725883
36	0x3d932172	0.071841136
37	0xbd111691	-0.03542191
38	0x3ce34b50	0.027745873
39	0x3d447c58	0.047970146
40	0x3c01642f	0.007897421
41	0xbdf113b0	-0.11771333
42	0x3cc4bda6	0.024016213
43	0xbc97b44e	-0.018518593
44	0xbbf884a5	-0.007584172
45	0xbd0a23fb	-0.03372572
46	0xbd58f81e	-0.052970998
47	0xbdb82aa6	-0.089925095
48	0x3d4940a3	0.049133908
49	0x3d416ca1	0.047222737
50	0xbcc92591	-0.024554046
51	0x3cc5f04f	0.02416244
52	0xbda4a36d	-0.080389835
53	0xbd58f24a	-0.05296544
54	0x3dc71a72	0.09721841
55	0x3db3843f	0.08765458
56	0xbc79ec6a	-0.015254119
57	0xbc31f8b3	-0.010862517
58	0x3d218690	0.03943497
59	0xbe376a0d	-0.17911549
60	0xbbf9adfc	-0.0076196175
61	0xbc349ef6	-0.011024227
62	0xbcb6ac1e	-0.022298869
63	0xbdb54aa1	-0.08852125
64	0x3dc82319	0.09772319
65	0xbe47fb8e	-0.19529554
66	0x3e255a7b	0.16147797
67	0x3dfbaf81	0.12289334
68	0x3d18a4e5	0.03726663
69	0x3d6132a1	0.054979924
70	0xbdc3487b	-0.09535309
71	0xbd511a08	-0.051050216
72	0xbd729537	-0.059224334
73	0x3d9d103d	0.07669113
74	0xbd1a9f96	-0.03774985
75	0x3d760a3c	0.060068354
76	0x3da81068	0.08206254
77	0x3d8a387c	0.06749055
78	0xbc403fad	-0.0117339315
79	0x3d339f01	0.04385281
80	0x3d5369ce	0.051614575
81	0xbcd6841a	-0.026186038
82	0x3e0f5e0a	0.14000717
83	0x3c50d1fb	0.012745376
84	0xbcc321f7	-0.023819907
85	0x3d0f443a	0.034977175
86	0x3da79420	0.081825495
87	0xbc3b65cd	-0.011437845
88	0x3d07a5d1	0.03311712
89	0xbc878719	-0.016543912
90	0x3c754913	0.0149710355
91	0xbdad0adb	-0.08449336
92	0xbdc0afcc	-0.094085306
93	0x39c6c526	0.0003791239
94	0x3d2ca9ee	0.042154245
95	0x3c05457f	0.008134245
96	0xbdaa493b	-0.08314749
97	0xbd1933aa	-0.037402786
98	0x3ca7f13e	0.020500775
99	0xbc6d196c	-0.014471393
100	0xbd97dfe6	-0.07415752
101	0xbc92cff3	-0.017921424
102	0xba8c83e6	-0.0010720461
103	0xbd919c71	-0.07109917
104	0x3da51813	0.080612324
105	0x3d4af2f2	0.049548097
106	0xbcb0ac59	-0.021566557
107	0xbd2d4b49	-0.042308126
108	0xbd263574	-0.04057832
109	0xbd42a5bc	-0.047521338
110	0x3c38ad1d	0.011271742
111	0xbd75944b	-0.059955876
112	0x3bcde350	0.0062832013
113	0xbd267b8c	-0.040645167
114	0x3d58391c	0.05278884
115	0xbda1e475	-0.07904903
116	0xbc95658a	-0.018236894
117	0x3cd7ed3d	0.026358241
118	0x3e11f2d4	0.14252788
119	0xbd2c87fe	-0.04212188
120	0xbbe93248	-0.0071165897
121	0xbb8601b4	-0.0040895585
122	0xbdb411b3	-0.08792438
123	0x3d946b47	0.07247024
124	0xbd8f4a48	-0.0699659
125	0xbdb5b719	-0.08872814
126	0xbc7323eb	-0.0148401065
127	0xba12292a	-0.0005575592
128	0x3c008e9a	0.007846499
129	0xbdf85f41	-0.12127543
130	0x3d0f8343	0.03503729
131	0xbe29df82	-0.16589168
132	0xbd2512af	-0.04030102
133	0x3b27d7af	0.0025610735
134	0xbd691f6b	-0.056914728
135	0xbd8f955b	-0.07010909
136	0xbd6612b6	-0.056170188
137	0x3ca6fd26	0.020384382
138	0xbbc0289c	-0.005864216
139	0xbdd410d3	-0.103547715
140	0xbd8a80ab	-0.06762823
141	0x3cec9c80	0.028883219
142	0x3dab84f7	0.083749704
143	0xbd1be6f5	-0.038062055
144	0xbcc7de73	-0.024398064
145	0xbb350577	-0.0027621666
146	0xbc98a138	-0.018631563
147	0x3cf764c6	0.03019942
148	0xbd4f94de	-0.05067908
149	0xbd0a13b6	-0.033710204
150	0x3c841625	0.01612384
151	0xbdd86c6d	-0.105675556
152	0x3cccf933	0.025021171
153	0xbca68c3d	-0.020330543
154	0xbd27b02d	-0.0409395
155	0xbb89f553	-0.004210153
156	0x3d72dfa9	0.05929533
157	0xbdd0f530	-0.10203016
158	0xbd9f69d0	-0.07783854
159	0x3ca9e57b	0.020739308
160	0xbd2a0b49	-0.04151467
161	0x3c66d2b2	0.01408832
162	0xbe7737cd	-0.2414238
163	0xbd394104	-0.04522802
164	0x3ca5eb72	0.02025387
165	0xbc567468	-0.013089277
166	0x3d4853df	0.04890811
167	0xbc8471a6	-0.016167473
168	0xbdf995ee	-0.121868
169	0xbd95c3ee	-0.07312761
170	0x3daa2e57	0.0830962
171	0x3c26b86a	0.010175804
172	0xbda99d76	-0.082819864
173	0xbe2ba195	-0.16760857
174	0xbd9aa23f	-0.07550477
175	0xbcc0e548	-0.02354683
176	0xbdb3e0ea	-0.08783133
177	0xbd95beba	-0.07311769
178	0xbc3b6534	-0.011437703
179	0xbdcb6038	-0.09930462
180	0xbb60e0ab	-0.00343136
181	0xbc551f6d	-0.013007981
182	0xbd1469f9	-0.036233876
183	0xbdac86a2	-0.08424117
184	0xbccc3aa1	-0.0249303
185	0x3c4fedd6	0.012690982
186	0x3d99bcd4	0.07506719
187	0xbc1a7d7b	-0.009429331
188	0xbe21326f	-0.15741895
189	0x3c841680	0.01612401
190	0xbca6f27a	-0.020379294
191	0x3d9411b4	0.07229939
192	0xbd5f0b23	-0.05445398
193	0xbd961d3f	-0.07329797
194	0xbdccd3cf	-0.10001337
195	0x3da16a2b	0.07881578
196	0xbda38c1a	-0.079857066
197	0xbd178ce2	-0.03699959
198	0xbd092b42	-0.03348852
199	0x3d96946d	0.07352529
200	0x3db52750	0.08845389
201	0xbd9414af	-0.072305076
202	0xbcf05b0c	-0.02934029
203	0xbd980cae	-0.074242935
204	0x3d219914	0.039452627
205	0xbd9f7108	-0.07785231
206	0xbda0bc5d	-0.078484274
207	0xbd818151	-0.06323493
208	0x3d0a85f2	0.033819146
209	0xbd297bcd	-0.04137783
210	0x3a2b4392	0.0006533201
211	0xbcbd6083	-0.02311731
212	0xbd79fcb7	-0.061032023
213	0xbd1f4b10	-0.038889945
214	0xbd8a7e56	-0.06762378
215	0x3cdef76b	0.027217587
216	0xbd66217e	-0.056184284
217	0xbbd902a0	-0.0066226274
218	0xbcf17823	-0.029476231
219	0xbd8dbd8b	-0.06920918
220	0x3d893560	0.066996336
221	0xbe2efb90	-0.17088151
222	0xbd32e713	-0.0436774
223	0xbd04de7c	-0.03243874
224	0xbd8a385e	-0.067490324
225	0x3d1e5c43	0.038662206
226	0xbc40dbe5	-0.011771177
227	0xbdaf4b0d	-0.08559237
228	0xba88e239	-0.0010443396
229	0x3d95bd82	0.07311536
230	0xb926c722	-0.00015905176
231	0x3de3e06f	0.11126792
232	0x3d13646b	0.035984438
233	0xbdfb270b	-0.12263306
234	0xbdd09525	-0.10184697
235	0x3d316b44	0.043315187
236	0xbd34fa88	-0.044184238
237	0x3cb37525	0.021906445
238	0x3cabd98d	0.02097776
239	0x3d601f04	0.05471708
240	0x3ceb1331	0.028695675
241	0xbd83c335	-0.06433717
242	0xbcc74c11	-0.024328263
243	0xbc984b64	-0.018590637
244	0x3d93b050	0.07211363
245	0xbdd125f2	-0.102123156
246	0x3dbea693	0.09309115
247	0x3df2b1be	0.11850308
248	0xbd3cf0fb	-0.046128254
249	0xbd63f091	-0.055649344
250	0x3c8b74c7	0.017023457
251	0x3d3d1949	0.046166692
252	0x3dabfc84	0.08397773
253	0x3d6f7159	0.058457706
254	0xbe5ced04	-0.2157479
255	0xbdc65db2	-0.0968584

fc3.bias f4 [128]
0	0xbb7fb0f7	-0.0039015391
1	0xbd39342d	-0.045215774
2	0x3d87a9d3	0.06624188
3	0xbc7f7804	-0.015592579
4	0xbd82fbbe	-0.06395672
5	0x3d450fbf	0.04811072
6	0x3c89e655	0.016833464
7	0x3a65f6e3	0.0008772446
8	0x3c7cc736	0.015428355
9	0x3d15aab7	0.03653976
10	0x3df8a53f	0.12140893
11	0xbd6c8a22	-0.05774892
12	0xbd444e4d	-0.047926236
13	0x3cd29758	0.025706932
14	0xbcf41b9c	-0.029798321
15	0xbcb9fd32	-0.02270374
16	0x3e1d8e72	0.1538637
17	0xbd90d6a1	-0.07072187
18	0x3dbff760	0.09373355
19	0x3bdb71ee	0.006696931
20	0xbda1529f	-0.07877087
21	0x3d3117fa	0.043235756
22	0xbdba8997	-0.091082744
23	0xba386a13	-0.0007034849
24	0x3d5a89f8	0.053354234
25	0xbdf5852e	-0.11988293
26	0x3cdeb45d	0.027185613
27	0x3dca341c	0.0987322
28	0x3d3ffc3c	0.04687141
29	0x3c9bdeb1	0.019027086
30	0x3d9fe35b	0.078070365
31	0x3d714145	0.058900137
32	0xbd75e9d7	-0.06003746
33	0xbc882db7	-0.016623361
34	0x3d85f01f	0.0653994
35	0xbc6483ad	-0.01394741
36	0xbd21183a	-0.039329745
37	0xbd75a03f	-0.059967276
38	0x3dbd8df7	0.09255593
39	0x3c509715	0.012731333
40	0xbd96ead7	-0.07369011
41	0xbd0dda4f	-0.034632023
42	0xbc9b3fb0	-0.018951267
43	0xbcd0bda6	-0.025481056
44	0x3dbfe899	0.09370536
45	0xbd6c8188	-0.057740718
46	0xbda02f10	-0.078214765
47	0xbd71cac4	-0.059031263
48	0xbd4cd97e	-0.050012104
49	0x3cb24354	0.02176062
50	0x3dafada3	0.085780405
51	0xbddf47e0	-0.10902381
52	0x3d4b3f81	0.04962111
53	0x3b62f760	0.003463231
54	0xbd71d5b9	-0.059041712
55	0xbd823107	-0.063570075
56	0xbba27a2d	-0.004958412
57	0xbcdeee62	-0.02721328
58	0xbde24094	-0.110474735
59	0xbd16e056	-0.036835037
60	0xbda9dfd2	-0.082946435
61	0xbd997b84	-0.07494262
62	0xbd0ece89	-0.034864936
63	0xbcdbe2c8	-0.026841536
64	0x3d3b8a89	0.045786414
65	0xbcde76b6	-0.027156215
66	0x3daf541b	0.08560964
67	0x3d6ed3e3	0.05830754
68	0xbcb62708	-0.022235408
69	0x3d85d169	0.065340824
70	0xbc4dc1d2	-0.012558417
71	0x3d95985f	0.07304453
72	0x3b90d7a6	0.0044202385
73	0xbcc14019	-0.023590134
74	0x3c460b45	0.012087648
75	0x3c9d52a0	0.019204438
76	0xbb06955c	-0.0020535802
77	0xbcabbcef	-0.020964114
78	0xbd4d5b54	-0.050135925
79	0xbde9661c	-0.11396429
80	0x3d0869c1	0.03330398
81	0x3da44346	0.08020644
82	0x3bf95306	0.007608774
83	0xbdbfff6e	-0.09374891
84	0x3dbb519b	0.091464244
85	0xbdc34cb7	-0.095361166
86	0xbcb76b20	-0.022389948
87	0xbdc5a7d7	-0.096511535
88	0x3cf94fa9	0.030433493
89	0xbd95fdf2	-0.07323827
90	0xbd7b786a	-0.061394133
91	0x3dd08579	0.10181708
92	0xbb551729	-0.0032515025
93	0x3cb1645e	0.021654304
94	0x3cbd211a	0.023087073
95	0x3dd401d9	0.10351915
96	0x3ce73d3d	0.028227443
97	0xbcf06e37	-0.02934943
98	0x3c8fa875	0.017536381
99	0xbd66e2e8	-0.05636874
100	0xbd036986	-0.032083057
101	0xb968f1ee	-0.0002221537
102	0xbddf88ee	-0.10914789
103	0xbd987f79	-0.074461885
104	0x3d36bfa1	0.044616345
105	0x3d6fcd2c	0.058545277
106	0xba8751b5	-0.0010324033
107	0x3cb60c10	0.022222549
108	0x3cd13852	0.02553955
109	0x3daca12e	0.0842918
110	0xbd814385	-0.063117065
111	0x3d7c116b	0.06154005
112	0xbb99c315	-0.004692445
113	0xbde42174	-0.11139193
114	0xbd6af1f1	-0.05735964
115	0xbd345a89	-0.044031654
116	0x3ddc5c75	0.10759822
117	0xbd353363	-0.04423846
118	0x3d505904	0.050866142
119	0x3dccb349	0.099951334
120	0xbd2a0961	-0.04151285
121	0x3d6fdedc	0.058562145
122	0x3d02c82a	0.031929173
123	0x3ca7e977	0.020497067
124	0x3b99da1d	0.0046951906
125	0xbdc5369b	-0.09629556
126	0x3aa52e6a	0.0012602333
127	0x3d7cc33e	0.061709635

fc4.weight f4 [1, 128]
0	0x3d28309d	0.041061986
1	0xbd047f00	-0.03234768
2	0x3dc13d3c	0.09435508
3	0xbcd01332	-0.025399778
4	0xbc46166a	-0.012090305
5	0x3dad6145	0.08465818
6	0x3d61b1c8	0.055101186
7	0x3d794b7c	0.060863003
8	0x3ca33c9e	0.019926365
9	0x3d399c9b	0.045315366
10	0x3cda9a1d	0.026684815
11	0xbcf9a38c	-0.030473493
12	0xbcf6fd51	-0.030150088
13	0x3d28d4a7	0.041218426
14	0x3cb2ad34	0.021811105
15	0x3d6cbdcb	0.05779819
16	0x3d57b586	0.05266335
17	0xbcad50da	-0.021156717
18	0x3d0c28a8	0.03421846
19	0x3d126f1d	0.035750497
20	0xbca84afc	-0.020543568
21	0x3ceba10c	0.028763317
22	0xbda6fea0	-0.081540346
23	0x3d8be544	0.06830838
24	0x3c91883b	0.017765155
25	0xbd4edd25	-0.05050387
26	0x3db11675	0.086468615
27	0x3c58da30	0.013235614
28	0x3dc9467f	0.09827899
29	0xbd114281	-0.035463814
30	0x3cbd731c	0.023126177
31	0x3d997e27	0.07494765
32	0xbd353c70	-0.04424709
33	0xbcd1e0ac	-0.025619827
34	0x3d87598f	0.06608879
35	0x3cb99871	0.022655698
36	0x3d06a3c0	0.032871008
37	0xbd956592	-0.072947636
38	0x3d0865a9	0.033300076
39	0x3c797116	0.015224716
40	0xbc94480d	-0.018100763
41	0x3d8cce14	0.06875244
42	0xbd5597fe	-0.052146904
43	0x3d84cc0d	0.06484232
44	0x3d05a5ed	0.032628942
45	0xbd003bfc	-0.031307206
46	0xbd16f573	-0.036855172
47	0xbd6d5eb4	-0.057951644
48	0xbc8e4b8a	-0.017370004
49	0x3d23c49e	0.03998243
50	0x3cbdac87	0.023153557
51	0xbd11fcb8	-0.035641402
52	0xbcdb795b	-0.026791265
53	0x3c9623d6	0.018327635
54	0xbd6513e9	-0.05592719
55	0xbcb56a70	-0.02214548
56	0x3d89d0ac	0.06729254
57	0xbccdae89	-0.025107639
58	0xbcb3f837	-0.021968944
59	0xbd7f6555	-0.062352497
60	0xbd4352eb	-0.0476865
61	0xbc7428a9	-0.014902272
62	0xbd520836	-0.05127736
63	0x3d84b30b	0.06479462
64	0xbdb450d1	-0.08804477
65	0xbd64176f	-0.05568641
66	0x3d5e61cf	0.054292496
67	0x3cdfe27c	0.027329676
68	0x3cab7cfc	0.02093362
69	0x3cea0892	0.02856854
70	0xbc94b041	-0.01815045
71	0x3c675770	0.014119968
72	0x3b874fae	0.0041293716
73	0xbd3a3488	-0.045460254
74	0x3dacb6c0	0.08433294
75	0x3d30ac88	0.04313329
76	0x3d8016bd	0.06254337
77	0xbd571ed3	-0.05251963
78	0xbcb2990f	-0.0218015
79	0xbcc371e8	-0.023858026
80	0x3c9a988d	0.01887157
81	0x3d26b953	0.040704083
82	0xbcbde850	-0.023182064
83	0xbd08b14c	-0.03337221
84	0x3c600a96	0.013674399
85	0xbce8965e	-0.028392013
86	0x3d232182	0.039826877
87	0xbcf0ac1a	-0.02937894
88	0xbc87b2be	-0.016564723
89	0xbd461ad8	-0.048365444
90	0xbd70322e	-0.058641605
91	0x3d086f76	0.033309422
92	0x3d2e4b61	0.042552356
93	0x3c875bba	0.01652323
94	0x3dc02590	0.093821645
95	0x3ba010cb	0.0048848144
96	0x3d05b9a5	0.032647748
97	0xbd2a903c	-0.04164146
98	0x3d944ff8	0.07241815
99	0xbcde3f20	-0.02712971
100	0x3d094ada	0.03351865
101	0x3caace5e	0.020850357
102	0xbd56e0af	-0.05246037
103	0xbd1715f7	-0.03688618
104	0x3d20dc8a	0.039272822
105	0x3c3f2cea	0.011668423
106	0xbd9125fa	-0.070873216
107	0x3d60c326	0.054873608
108	0x3d5a9928	0.053368717
109	0x3cfd86d1	0.030948075
110	0x3d967329	0.07346184
111	0x3d96ecf5	0.07369415
112	0xbd83e1ec	-0.064395756
113	0xbd4747df	-0.048652526
114	0x3cc2814a	0.02374329
115	0x3db1c614	0.086803585
116	0x3da8b278	0.08237165
117	0xbd4e83fd	-0.050418843
118	0x3de31b10	0.11089146
119	0x3c2700b9	0.010193043
120	0x3dacbe3a	0.0843472
121	0x3cd3b55b	0.025843313
122	0xbcdbac58	-0.026815578
123	0x3cb0210f	0.021500139
124	0x3d0c4ccd	0.03425293
125	0xbcdd9e18	-0.027052924
126	0xbd058808	-0.032600433
127	0x3c5a7cb8	0.013335399
