checkpoint_critic1.pth (torch_old, 450684 bytes, 7 tensors)

fcs1.weight f4 [256, 48]
000000 d9 31 18 3c 96 05 e3 bd ab cf d6 3b 91 a5 8e bb
       0.009289228 -0.1108505 0.0065555177 -0.004353233
000010 3f 9a 3a bd b9 20 4a bd e1 3b 53 bc dd 74 e3 bd
       -0.045557257 -0.049347613 -0.012892694 -0.11106274
000020 76 f2 be bc c5 44 c2 bd b1 69 5e 3d bf f6 81 3b
       -0.023308974 -0.09485773 0.054300014 0.003966182
000030 06 99 55 bd 45 e9 0c be ff 93 5d bd 9e 6f 6b bd
       -0.052147888 -0.1376086 -0.05409622 -0.057479493
000040 d3 32 c3 3c 65 ed 9d bd be f3 1d bd 71 fa 52 3d
       0.023827946 -0.07711295 -0.03856253 0.05150837
000050 73 cc ae bd 11 ce 8d bd 96 ef 13 bd ad 32 e9 ba
       -0.08535089 -0.0692407 -0.03611716 -0.0017791592
000060 23 69 1e bd ce e9 93 bd 4b 47 31 3d b3 d8 02 3d
       -0.038674485 -0.07222329 0.04328088 0.03194494
000070 ce 2d 9d 3d 71 39 a5 bd 31 e7 09 bd 1b cc e4 bc
       0.07674752 -0.08067597 -0.033667747 -0.027929356
000080 59 06 76 bd c0 bc 10 3d 40 09 ea 3c 23 8f b3 3d
       -0.060064647 0.035336256 0.028568864 0.087675355
000090 c8 ff 67 3d f9 e0 33 bd 51 bc 5f 3b 4b 88 d8 3d
       0.056640416 -0.043915723 0.0034139345 0.10572871
0000a0 86 ad 2f bd 8d 46 34 bd 5b c5 2f bd 61 b6 1b 3d
       -0.042890094 -0.044012595 -0.042912822 0.038015727
0000b0 a2 8e 23 3d a3 7f 40 bd 01 ae 62 3d a7 a4 4b 3d
       0.039930947 -0.046996724 0.055341724 0.04971757
0000c0 af 5a 6a 3d 32 8e 12 bc 5e c2 9d 3c 8d b7 b7 3a
       0.05721539 -0.008945035 0.01925772 0.0014016494
0000d0 3b c9 23 3d d6 74 a1 bb 20 ea 8a bc 04 ee 1f 3d
       0.03998683 -0.004927258 -0.016957343 0.03904535
0000e0 8b 00 e7 bc 61 b5 fb bc 2c 90 0a bd e9 41 2b bd
       -0.028198501 -0.030726137 -0.0338289 -0.041810904
0000f0 0a 7a 8c 3d 69 cb 7d bd 8c 66 f6 3c 30 6b ca bd
       0.068592146 -0.061961565 0.030078195 -0.09883726
000100 89 c5 a0 bd 6d f2 2f 3d 1d 5c d3 bc 88 3f 4d bd
       -0.07850177 0.042955805 -0.025800759 -0.050109416
000110 99 8a 07 bc 43 d2 d2 3c 32 32 ab 3b b4 40 41 bd
       -0.00827279 0.025735026 0.0052244896 -0.047180846
000120 48 fb bb 3d 18 89 d1 3d a0 fe eb 3c e2 d1 e0 bb
       0.091787875 0.10231227 0.028807938 -0.0068609575
000130 91 d8 f4 bd 7e db 05 bd 01 ec 0d bd 5c 19 8d bc
       -0.11955369 -0.032680027 -0.0346489 -0.017224006
000140 7d f5 72 3d e0 d5 06 3e fc ee 22 3c e2 a4 7c bc
       0.059316147 0.13167524 0.009944674 -0.0154201705
000150 d3 04 8f bc b6 09 2d bd c4 71 db 3c 82 f1 74 bc
       -0.017458355 -0.04224559 0.026787646 -0.014950158
000160 93 fd f9 bb a7 de 2d 3d de 7f aa bc b1 df c0 3c
       -0.0076291054 0.042448666 -0.020812925 0.023544164
000170 4e c5 c7 bc 56 bc 73 3d 7c 85 94 3c ca 72 58 3d
       -0.024386074 0.059505783 0.018130057 0.052843846
000180 59 7d 85 3d 05 e1 0b 3e 94 13 16 bb 98 57 86 3c
       0.06518049 0.13660057 -0.0022899853 0.01639919
000190 eb 28 cc 3b 92 04 ad bd ad e4 80 3c 72 a9 32 bd
       0.0062304637 -0.08448137 0.015734041 -0.043618627
0001a0 b3 46 b7 3c b3 9e c1 3d 1f 30 d3 3b ae be d1 bc
       0.02237258 0.094540976 0.0064449455 -0.025603618
0001b0 13 1e ac 3a 87 d2 e0 bd 7d b7 20 bd 86 54 35 3d
       0.0013131521 -0.10977655 -0.039237488 0.04427006
0001c0 bd 5e 92 bc 9d 55 2f 3e ab 58 1e bd d9 ec ff bd
       -0.01786744 0.17122503 -0.03865878 -0.12496347
0001d0 df 5b 91 3c 98 15 67 be 64 65 76 bd 8b e1 85 bd
       0.017744003 -0.22566831 -0.060155287 -0.065371595
0001e0 64 d4 05 3d 5e 1f 0c 3d f0 2b ac bc 1f 3d c7 bd
       0.032673255 0.0342096 -0.021017045 -0.09728455
0001f0 4b 92 d1 bc be 03 88 bd 41 c5 3f 3d cb c6 1b bc
       -0.025582453 -0.06641339 0.046818975 -0.009507845
000200 d2 6f 06 bd c8 22 5c bc 60 9b f2 bc a7 40 98 bd
       -0.032821484 -0.013436027 -0.029615104 -0.074342065
000210 f9 46 17 bd bd 50 0c be da b5 37 bc d8 4f 30 3c
       -0.03693292 -0.13702674 -0.01121279 0.010761224
000220 b8 19 8a 3d 76 9c 89 b9 fc 5f 3c bd dd 6f 16 3c
       0.06743187 -0.0002624725 -0.045989975 0.009181944
000230 c1 a6 15 3d 3a 18 62 be 64 51 ad bd dd 79 f5 3c
       0.036535982 -0.22079554 -0.0846279 0.029965336
000240 4f b8 87 3c 14 e2 cf 3d c2 7a 3a 3d 86 ce 65 3d
       0.016567377 0.10150543 0.045527227 0.05610516
000250 a1 62 d9 3d c6 93 04 bd e4 84 3c bd cf b7 f5 3b
       0.10614515 -0.03236749 -0.046025172 0.0074987183
000260 f0 54 03 ba b1 a2 b3 3c 0a 91 a0 3a 33 aa dd 3c
       -0.000500991 0.021928163 0.0012250256 0.027058696
000270 35 ad f4 bc af 2e 44 3d 6e 85 c3 3c 1c ba 81 b7
       -0.029867748 0.047896083 0.023867335 -1.5464662e-05
000280 f6 23 05 3d 41 1e fa 3d 5c 8b 70 3c ae 2d 18 bd
       0.032505 0.12212802 0.014681663 -0.03715294
000290 07 fe 0c be 09 73 06 3d bd 38 de 3c 60 53 26 bc
       -0.13768779 0.03282455 0.027126664 -0.010151714
0002a0 c2 e8 4a bc 8e 5b 11 3e aa b1 a8 3c 80 4a 68 bc
       -0.012384595 0.14195082 0.02059253 -0.014177918
0002b0 3b fa 62 bd 81 b7 97 3d 22 a8 ed 3c 43 d5 c9 bd
       -0.05541442 0.074080475 0.029010836 -0.098551296
0002c0 26 ef 7d 3d 51 11 09 3e cd 0b 1e bd e4 c7 08 3d
       0.061995648 0.13385512 -0.038585473 0.033393756
0002d0 5e 0e b8 bc 95 63 47 3d b8 ab 2a 3c 9c a3 3b 3d
       -0.022467788 0.048678953 0.0104169175 0.045810327
0002e0 32 d3 d7 3b f1 8c f2 3d a6 49 e3 bc a8 ab f6 bc
       0.0065864557 0.11843289 -0.02774508 -0.030111149
0002f0 2b 33 23 3e 86 df ef 3b fa a3 97 ba 52 9e b2 bd
       0.15937488 0.0073203472 -0.0011569255 -0.087216035
000300 48 5d f1 bb ab dd 61 3e 72 ff d9 3c 5b 55 c9 bb
       -0.0073658563 0.22057216 0.026611064 -0.0061442084
000310 3d 52 9e 3d 04 92 df bb 26 44 f1 bc e5 9e 4d bd
       0.077305295 -0.0068228263 -0.029451441 -0.05020036
000320 01 a8 37 bc 97 2c 4d 3e e9 3c d4 bc 3c fd cd 3c
       -0.011209489 0.20036541 -0.02590795 0.025145166
000330 29 74 4d 3c bb 90 19 3d e6 04 45 bd 54 99 b3 3c
       0.012539902 0.03749154 -0.048100375 0.021923698
000340 93 5e 7f 3d d5 c8 dd 3d f7 3c 78 3c 7d 05 92 bd
       0.062346052 0.10829321 0.015151254 -0.07129953
000350 09 36 16 3c 27 eb 05 3d 21 7d 16 bd 87 fd 18 3b
       0.009168156 0.032694962 -0.036740426 0.0023344473
000360 f4 55 85 3d 12 0c 85 3e f5 76 cc 3c d0 7b da bc
       0.06510535 0.2598577 0.024959067 -0.026670367
000370 f9 f5 b7 bd 5c b7 c4 3c bf 10 67 bd b2 91 44 bc
       -0.089824624 0.024013214 -0.056412455 -0.011997627
000380 06 3b ce 3d bb 33 26 3e 65 1a 3a 3d 7e 32 e8 bd
       0.100698516 0.16230671 0.045435328 -0.113377556
000390 e5 41 7b 3c 91 a5 db 3b b1 bf 68 bd 85 44 a6 39
       0.015335535 0.0067030867 -0.056823436 0.00031713038
0003a0 fb fa cb 3d bb 29 72 3e 6c d3 4f 3d 17 79 8f bd
       0.0995998 0.23648731 0.050738737 -0.07005518
0003b0 37 b9 81 bb 4f 7c 44 bd 5e 64 41 bd 91 b4 33 bd
       -0.003958847 -0.047970112 -0.04721486 -0.043873373
0003c0 73 b4 7c 3d 70 94 8c 3c eb 0c c0 3c 70 16 a5 3d
       0.061695527 0.017160624 0.02344366 0.0806092
0003d0 6a e6 db 3c 1c e1 65 bc ea 33 24 bd 03 2d a5 3c
       0.026843268 -0.014030721 -0.04008857 0.020163065
0003e0 df e2 fa 3c 89 07 f3 3d 30 18 df bb 86 03 84 3c
       0.030625759 0.118666716 -0.0068083033 0.016114961
0003f0 57 7c 0c 3b 0c bf 89 3a e5 94 74 bd 63 e6 37 3d
       0.0021436417 0.0010509207 -0.05971231 0.04489745

fcs1.bias f4 [256]
000000 89 66 98 bc 42 23 8c bd 72 ef 96 3d da e6 dd 3d
       -0.01860358 -0.068426624 0.07369889 0.10835047
000010 98 d0 6f 3d b1 4a 3e 3d 57 20 af bd f8 c9 5d bd
       0.05854854 0.04645795 -0.0855109 -0.05414769
000020 3f 32 67 3d e6 a1 ee 3d fb 59 a3 bd f7 0b 8c bd
       0.056444403 0.116519734 -0.07976147 -0.068382196
000030 db 03 9c 3d b8 e4 0b 3e c6 38 47 be b1 b8 b1 bd
       0.07617923 0.13661468 -0.19455251 -0.08677805
000040 fa 8f 9c 3d f0 a9 cc 3d 83 c9 93 3d fe bb 0b 3e
       0.07644649 0.099933505 0.0721617 0.13645932
000050 e2 2c d0 bd 7a e1 89 bd 0e 9e 10 bd b2 4e fd bd
       -0.10164811 -0.06732459 -0.035306983 -0.123685256
000060 32 bb 00 be 63 21 c1 bd e5 90 9c bc 9d 1f 6a bc
       -0.1257141 -0.09430196 -0.01911206 -0.014289764
000070 0a 19 c1 3d c5 44 ca bd 88 84 a3 bd 26 cf 2e be
       0.09428604 -0.09876398 -0.07984263 -0.17071208
000080 25 df 0c 3d 69 2e e5 bd c5 7a 39 3d ce bf 5b 3d
       0.034392495 -0.11190493 0.045283098 0.053649716
000090 7f 00 d7 bd c2 92 e5 3d 9e 18 d9 bd 15 17 02 be
       -0.104981415 0.112096325 -0.106003985 -0.12704118
0000a0 fa 45 d8 3c bb 9d b4 3d c1 c0 9f 3d 3f 68 b8 3d
       0.026400555 0.08819147 0.07800437 0.09004258
0000b0 ec 71 c0 bc d1 cc 0f 3d 39 7f 19 3d 7f 89 df 3c
       -0.023491822 0.035107438 0.037474845 0.027287243
0000c0 4a a6 2d be 70 80 1e 3d 3a 96 93 bd 96 2b 16 3d
       -0.16957965 0.038696706 -0.07206388 0.03666266
0000d0 89 7f 60 3d a8 dc 6f bd d4 29 7c 3d eb 4a 13 bd
       0.054809127 -0.058560044 0.061563328 -0.03596012
0000e0 40 f2 05 be 88 55 b3 bd ec e2 70 3d 1f 6b e0 bd
       -0.13080692 -0.08756548 0.05881016 -0.10957932
0000f0 a3 12 1a be c2 e4 4b bd 22 46 33 be 92 f9 21 be
       -0.15046172 -0.049778707 -0.17507222 -0.1581786
000100 2b 7f 8a bd 8e 24 0a 3c 3f 02 02 bd a2 7f 65 bd
       -0.067625366 0.008431567 -0.031740423 -0.056029923
000110 f2 b5 95 bd a5 e9 fc bd df 3e 33 3c 00 cb d2 3d
       -0.07310094 -0.12349252 0.010940283 0.102926254
000120 a7 f6 36 be a0 62 90 bc ab d0 ba 3c b7 26 2b 3d
       -0.17867528 -0.017625153 0.022804579 0.04178497
000130 4e 89 e7 bc e0 45 92 bd 68 6f ab bc e4 3c 15 be
       -0.028263714 -0.07142234 -0.020927146 -0.14574009
000140 76 02 dd bc 08 54 eb bd c4 3f 8b bd f7 68 87 bd
       -0.026978713 -0.11490637 -0.06799272 -0.06611817
000150 9a 11 c9 bb d2 20 1c be f7 b3 0f 3e 2f 83 c7 bd
       -0.0061361315 -0.15246895 0.14033495 -0.09741818
000160 0c cc 0a be c1 02 7f 3d bd 5a ca bd c6 9e ce bb
       -0.135544 0.062258486 -0.09880588 -0.0063055484
000170 f8 09 92 bc c2 30 13 be f8 24 a7 bc 2f 1f cc 3d
       -0.01782702 -0.14374068 -0.02040337 0.09966885
000180 ce a7 d0 3d 05 42 66 3d 18 8c 08 be 8e bc 8a bb
       0.10188256 0.056215305 -0.13334692 -0.0042339033
000190 db cc e2 bc b5 23 df 3d 1c f8 4d bd e3 3d bd 3d
       -0.027685573 0.108954825 -0.050285444 0.092403196
0001a0 01 17 9b 3d c6 2d 2c 3d f2 70 8a 3b cc 40 1b 3d
       0.07572747 0.04203584 0.00422489 0.037903592
0001b0 82 9e 16 3c 6b de 03 3c 0d 1f b4 3c c5 58 9d 3d
       0.009193065 0.008048634 0.021987462 0.07682947
0001c0 46 89 8e 3d cd 95 92 3d 1d 6b 40 3d 3f d8 3b 3d
       0.069597766 0.071574785 0.04697715 0.045860525
0001d0 96 f6 44 bd ee b6 89 3d 90 bf 33 be 19 5b e5 3d
       -0.048086725 0.06724344 -0.17553544 0.11199016
0001e0 4f aa f7 bd a4 c5 4c bd 59 b1 60 bd a9 3f 34 be
       -0.12093031 -0.049993172 -0.054856632 -0.1760241
0001f0 2e 35 19 be 50 40 28 be 2f 43 15 bd 88 a7 24 3d
       -0.14961693 -0.16430783 -0.036441024 0.040198833
000200 e3 96 1b be 26 dd 45 be cb 3f 0a bc 9a 46 8c 3d
       -0.15194277 -0.19322643 -0.008438061 0.06849404
000210 a4 cf e1 bd 88 0c 2b be ee ba 2e 3d 56 5d 03 bd
       -0.110259324 -0.16703999 0.04265874 -0.032071434
000220 bc 44 21 be f9 6a 8b bc 4e 24 25 be 9a 7c 33 be
       -0.15748876 -0.017018782 -0.1612713 -0.17528
000230 4b c8 23 bd 28 85 db 3d f7 76 18 3d a7 20 ed bd
       -0.039985936 0.10718757 0.03722283 -0.115784936
000240 08 bb 2c be 43 28 e0 bd 71 c2 2f 3d 72 a7 c8 3a
       -0.16868222 -0.10945179 0.042910043 0.0015308692
000250 c2 d2 04 3c 14 fa 31 be 9d 6d 33 bd 62 c4 9d 3d
       0.008106889 -0.17380553 -0.043805707 0.07703473
000260 2f bd 16 be 4b 2a b1 3d 64 78 e1 3c 39 f1 18 3d
       -0.14720605 0.08650645 0.027523227 0.037339423
000270 f0 3f 67 3b 55 79 09 bd 90 2e b2 3d f5 d4 ca bd
       0.0035285912 -0.033562977 0.08700287 -0.099038996
000280 ef d7 3b be a6 d8 e2 3d dc 46 94 3c 51 8f 03 be
       -0.18344091 0.11076479 0.018100195 -0.1284764
000290 0b a9 2d 3d 3a 27 0c be 02 f1 1c 3d 9d d3 21 be
       0.04239754 -0.13686839 0.03831578 -0.1580338
0002a0 02 c9 e9 bd 48 e4 aa 3d 38 48 47 bd f0 05 83 bd
       -0.11415292 0.083443224 -0.048652858 -0.06397617
0002b0 5e 28 38 3d 7c 4d 4b 3d d6 08 7a bd bc 07 4a 3d
       0.044960372 0.04963444 -0.061043583 0.049323782
0002c0 c8 6b d4 3d fc 11 70 3d 0b bf ef 3d a5 84 f8 bd
       0.1037212 0.0586109 0.117063604 -0.12134675
0002d0 a1 a3 9a bd c0 82 41 bd de 34 cd bd 2c 55 35 3d
       -0.07550741 -0.047243834 -0.10019849 0.04427068
0002e0 58 32 42 3d c5 85 36 be 5a 2d e1 bd 43 5d 97 bd
       0.047411293 -0.17824467 -0.10994978 -0.07390835
0002f0 77 93 26 3d c9 d2 ba bd 49 a7 0d 3d ba 7f b3 bd
       0.040667977 -0.09122235 0.034583364 -0.08764596
000300 c7 c2 1c 3c c9 b2 d3 bd a5 c8 23 be c1 b3 03 bc
       0.009567923 -0.10336835 -0.15994509 -0.008038462
000310 c6 ab 9e bc 18 bd f9 bd 9c d3 e8 3d 49 60 92 3d
       -0.019369017 -0.1219427 0.11368486 0.07147271
000320 11 ba 29 bd 7a 9c 6a bc 35 b6 46 bd a5 18 36 be
       -0.041437212 -0.0143195335 -0.04851361 -0.17782839
000330 2e 29 18 3e 64 dc e4 3d 73 61 37 3d 0c 5f 03 bd
       0.14859459 0.11174849 0.04477067 -0.032073066
000340 4a 02 09 be 0c dc 32 bc 4a c3 f2 bd 90 f0 68 bd
       -0.1337978 -0.010916721 -0.11853655 -0.056870043
000350 a6 8f dc bd 6e 73 20 3d af c4 b8 bb d2 4e 3e be
       -0.10769586 0.039172582 -0.005638681 -0.18584755
000360 8a d5 e9 bd 22 19 29 be f7 57 23 3e 63 b3 b6 3d
       -0.114176825 -0.16513494 0.15951525 0.08920934
000370 fa fe 23 be b6 80 26 be 96 af 83 bd a1 20 94 3b
       -0.16015235 -0.16260037 -0.06429975 0.004520491
000380 b8 e5 1e 3d ef 5e 02 be 76 84 b8 bd b1 53 fe 3d
       0.038793296 -0.12731527 -0.0900964 0.124183066
000390 1a 15 8e bd 45 5b 27 3d ef 84 b3 3d 42 5c 05 3e
       -0.069376186 0.040858526 0.087655894 0.13023475
0003a0 d8 f2 03 be 25 af 02 bd f7 e7 23 3d d0 da 20 be
       -0.12885606 -0.031905312 0.04001614 -0.1570847
0003b0 5f da 8f 3c 0a 4b 11 bd 8c 27 cd 3d d8 9c 68 3d
       0.017560182 -0.035471953 0.100173086 0.056790203
0003c0 03 28 c3 3d cc 5d 44 3d 31 c1 c9 3d fa ad 3b be
       0.09529116 0.047941014 0.098513015 -0.18328086
0003d0 e3 f4 41 bd de 40 1e be d4 44 92 3c 24 6e e9 bc
       -0.047352683 -0.15454432 0.017855085 -0.028494902
0003e0 fe e0 16 3e 13 c3 90 bd 89 a7 27 3e fe 6c 13 3d
       0.14734265 -0.070684575 0.16372503 0.035992615
0003f0 12 af 32 3c b7 07 e2 bc 85 7b 60 bc 62 d6 e0 bd
       0.010905998 -0.02759157 -0.013701324 -0.1097839

fc2.weight f4 [256, 260]
000000 30 eb ff bb 9b 62 63 3d 04 9f 8a bd 7d b8 5d bd
       -0.007810019 0.05551396 -0.06768611 -0.05413102
000010 33 ee 97 bd 99 c6 a2 bb c5 b6 1a 3e 04 ba 0a be
       -0.0741848 -0.0049675223 0.15108784 -0.13547522
000020 ef 3c ce bd 22 58 a8 bc 59 6e 79 3d 82 2c d5 3c
       -0.10070216 -0.020549837 0.06089625 0.0260222
000030 97 b2 89 bc eb 7f 31 3d 16 d5 97 bd b8 fd af bc
       -0.016808791 0.043334883 -0.0741369 -0.021483287
000040 07 14 a0 3d de c3 b3 3d 84 88 61 3d 32 ca 51 bd
       0.0781632 0.08777593 0.055061832 -0.05121822
000050 21 2f 2d 3d a3 27 03 bd 59 78 29 bd af 80 c6 bd
       0.042281274 -0.032020222 -0.041374538 -0.09692513
000060 89 75 12 bd 03 05 80 bd 67 b8 f3 bd 1e ae 59 bd
       -0.03575662 -0.06250956 -0.11900406 -0.053144567
000070 52 fd 15 be 98 03 36 bd 7d ec 96 bd 20 fc d9 3c
       -0.14647415 -0.04443702 -0.07369325 0.02660948
000080 7e e1 51 bd 19 c3 63 bc bd 64 86 bd 2a ea 15 bd
       -0.051240437 -0.013901495 -0.06562183 -0.03660027
000090 1c 06 b0 bd a6 1a 2b 3d fa 3c 95 bd a6 c4 a4 3a
       -0.08594915 0.04177346 -0.07287021 0.0012570813
0000a0 36 b4 cd 3d e7 3e 93 3d 3c 3f 33 3d 92 48 7b bc
       0.10044138 0.07189732 0.043761477 -0.015337126
0000b0 66 a9 55 3c c1 5d b5 bc 63 5b 0e bd ac b2 21 be
       0.013040876 -0.022139432 -0.034755122 -0.15790814
0000c0 aa e4 86 bd dc 12 12 3b 83 17 f0 bc 8f 91 05 bd
       -0.06586583 0.0022289073 -0.029308086 -0.03260952
0000d0 0a 5a 20 3c 64 53 4d bc fb d1 ea bc 42 7c 11 bd
       0.009787092 -0.012532089 -0.02866458 -0.035518892
0000e0 ad 5b 74 bc 07 0d 08 3d d9 b9 92 bd 74 39 bd 3c
       -0.014914435 0.03321555 -0.07164354 0.023098685
0000f0 61 b2 10 3d 7a c8 ae 3d 05 64 e8 bd 63 40 b3 3b
       0.035326365 0.085343316 -0.11347202 0.005470322
000100 93 d8 2b 3d af cf 57 3d bb 85 a0 3d 71 35 7a 3d
       0.04195459 0.052688297 0.07838007 0.061086122
000110 ad b8 10 3d 14 4b 2c 3d d6 b6 e2 bd d4 43 ac bd
       0.03533237 0.042063788 -0.110700294 -0.08411375
000120 b2 39 07 3d 6b 9e 22 bd 67 e9 20 3d 2a dc f8 bc
       0.033014007 -0.03970186 0.03928509 -0.03037842
000130 6a 1d 14 be b4 b0 c1 bc a9 be 14 be e1 e2 4b 3d
       -0.14464346 -0.023643829 -0.14525856 0.049776915
000140 79 3a 32 bd 37 63 25 3d 7e a4 0e bd 82 ef d3 bd
       -0.043512795 0.04037782 -0.03482484 -0.10348417
000150 0b e2 0a 3d c8 00 dd 3c d2 44 0f bc 38 87 79 3d
       0.033906978 0.026977912 -0.008744435 0.06091997
000160 69 ee 4b bc 7f 81 c8 3c 2f 56 8e bd 74 90 e5 bd
       -0.012446978 0.024475811 -0.06950032 -0.11209193
000170 ad df 4e bd 08 1e b4 3c 66 2a 52 3c 77 3a 9c 3b
       -0.050506283 0.021986976 0.012827491 0.0047677117
000180 88 f1 53 bd a9 74 9e bb 2d 2b dd 3c e9 a8 b9 bd
       -0.051744014 -0.0048356843 0.026998127 -0.0906542
000190 ff da 44 bd 1e ed 82 3c 56 f4 84 bd 7c 26 b6 bb
       -0.048060413 0.015982207 -0.06491916 -0.005558787
0001a0 2f a9 14 bc 0d fe 9e bd 9b 91 f0 3c d8 77 5e 3d
       -0.00907354 -0.077633 0.029366305 0.05431351
0001b0 11 55 d1 bc 64 d9 87 bd 10 b5 8d bd 1f c4 35 bc
       -0.025553258 -0.06633261 -0.069193006 -0.011094122
0001c0 46 24 cb bc 0c 86 92 bd 4b 0a be bc 75 71 29 bc
       -0.02479757 -0.07154474 -0.023198267 -0.010341992
0001d0 d0 01 06 bd ca f9 cc bc cc be b0 bd c9 75 bc bd
       -0.032716572 -0.025021452 -0.086301416 -0.09202153
0001e0 7a 2d 89 bd ed bc 0d 3d 47 08 83 3d 51 e4 a1 3d
       -0.06698127 0.034604 0.06398063 0.07904876
0001f0 8d 91 8b 3d a7 bf 59 bb e0 05 90 3d ee 80 18 bd
       0.06814871 -0.0033225806 0.070323706 -0.037232332
000200 2d 13 67 3d db 5a 3f 3d f7 6b d0 3d fa 6b 10 bd
       0.05641477 0.046717506 0.10176843 -0.035259224
000210 d2 90 0a bd d7 42 52 3d c5 d5 bf bd 0d 8b d4 bd
       -0.033829518 0.051333275 -0.09366945 -0.10378084
000220 7b 83 86 bd 7c bb e8 bd 9f ac a5 bd 48 6c dc bc
       -0.06568047 -0.11363885 -0.080895655 -0.026907101
000230 38 97 8f bd f1 01 d4 3b 69 62 83 3d 51 1b 84 bb
       -0.070112646 0.006469958 0.064152546 -0.0040315767
000240 4e 02 2d bd 1f b4 3b 3d 1c 63 51 3b ce f1 47 3d
       -0.042238526 0.045826074 0.0031949943 0.048814587
000250 60 ec 94 bc 35 71 35 3d a2 08 59 bc 81 9c 8d bd
       -0.018179119 0.044297416 -0.013246687 -0.069146164
000260 14 17 f9 ba d4 c1 f1 bd ba 74 f8 3c 8a fc 92 bd
       -0.001900407 -0.11804548 0.030329097 -0.07177074
000270 48 0f 56 3d 2c 7e 6a 3d d9 e2 4b bd 1d fe 54 3d
       0.052260667 0.057249233 -0.049776886 0.052000154
000280 ad b8 3f bd c7 4f a3 3d 49 2f 06 3d de 72 b2 bd
       -0.04680698 0.07974201 0.03275994 -0.087133154
000290 d5 0a a0 3d 3b c5 3b 3d 36 13 56 3d 37 bb eb 3c
       0.07814566 0.04584239 0.052264415 0.028775794
0002a0 c8 1f 03 3d 76 c9 87 3d e1 db 5b 3c 94 f8 0f bd
       0.03201273 0.066302225 0.013419122 -0.035149172
0002b0 63 8a bb bb ec f7 ca bc 27 82 da bc 35 39 43 3c
       -0.005723284 -0.024776421 -0.02667339 0.011915495
0002c0 5a 2a c0 3b b8 0b 86 bd 2c 44 d6 3d d2 8f c6 bd
       0.0058644237 -0.06545204 0.104622215 -0.096954
0002d0 b1 cb 9b 3b e1 ba 26 bc e1 49 d0 bc ab 0c ce bd
       0.0047545065 -0.010176391 -0.025425853 -0.1006101
0002e0 6c af 93 3c 95 4f 46 bb c2 72 9e 3b 74 37 5e 3d
       0.018027984 -0.0030259837 0.0048354575 0.054252103
0002f0 4e 22 39 bd 29 0c 0e 3d a2 de f6 bc 4b ea b9 bc
       -0.04519873 0.034679566 -0.030135456 -0.022694727
000300 06 3e 4b bc 29 c6 cd bc 75 c0 2b bd 68 64 0f 3d
       -0.012404924 -0.025118904 -0.04193159 0.035007864
000310 25 97 a6 3d 59 a5 a5 bd 5d 30 4a 3d dd b4 34 3d
       0.08134297 -0.08088178 0.04936253 0.044117797
000320 77 85 aa 3c de 54 35 3d 5a 40 d7 bc 38 09 d4 bb
       0.020815594 0.04427039 -0.026275802 -0.0064708255
000330 ed fa ae bc 3a 97 e5 bc fd 0c 75 3d c1 b5 29 bd
       -0.021359885 -0.028026212 0.05982684 -0.0414331
000340 b8 ed 71 bd 28 2a 84 bc c0 cd 01 bd 19 59 80 3d
       -0.059064597 -0.016133383 -0.03169036 0.06266994
000350 6e 23 02 3d 76 82 7d 3d d1 19 fc 3c 2b a3 4b bd
       0.03177207 0.061891995 0.030774029 -0.049716156
000360 fb eb 47 bd 7a 00 06 3d 95 5f 41 3d 9c 57 25 3c
       -0.048809033 0.0327153 0.047210295 0.0100916885
000370 ee d3 1e 3c 3a 40 0c 3c 35 79 2b 3c 79 1b 08 be
       0.009694083 0.008560235 0.01046591 -0.1329173
000380 86 e0 af bc 06 01 3a 3b 18 ba 1d bd ea 4a e4 bb
       -0.021469366 0.0028381958 -0.03850755 -0.0069669383
000390 e0 a9 c5 3c 41 5f 0d 3d ae f5 38 bc fc ac 36 bd
       0.024128854 0.03451467 -0.011289043 -0.044598565
0003a0 31 33 59 3c 12 63 8c bd 36 be 49 3c 78 75 50 bd
       0.013256834 -0.06854834 0.012313416 -0.050893277
0003b0 23 a2 4d 3d 1a fa 91 bc 54 e7 cc bc 49 14 b9 bd
       0.050203454 -0.017819453 -0.02501265 -0.09037072
0003c0 5b a0 d1 bd 87 47 21 3d 04 e5 c4 b8 85 50 2b bd
       -0.102356635 0.039374854 -9.388666e-05 -0.041824836
0003d0 79 b0 26 3c 2d c5 45 bd 00 d3 c9 ba f6 71 8e bc
       0.01017391 -0.048283745 -0.0015397966 -0.017388325
0003e0 66 e2 e2 bc 78 d8 a0 bc dc 50 c1 bd e5 fc 75 3d
       -0.027695846 -0.01963447 -0.09439251 0.060055632
0003f0 e8 1f 6a 3d 2b 16 b5 bc d1 c8 87 bd 5b a0 16 3d
       0.057159334 -0.022105297 -0.066300996 0.03677402

fc2.bias f4 [256]
000000 3a e9 df b9 89 92 ae 3d 17 51 37 bc 33 45 84 3d
       -0.00042707642 0.08524043 -0.011188767 0.06458511
000010 4c 66 05 3c df 11 c6 3c d8 c8 87 3d 22 01 17 3d
       0.008142065 0.024178443 0.06630105 0.036866315
000020 dd bb ba bc 56 42 cf bb aa 6a 2e 3c a8 58 d2 bd
       -0.022794658 -0.0063250465 0.010645548 -0.10270816
000030 7c 85 8e 3d 5e 8f 01 3d 60 01 82 bd 12 e7 55 3d
       0.06959054 0.031630866 -0.063479185 0.05222232
000040 30 3c 1b bc 2b 04 16 3c 73 ce a6 bd 0d 1b 83 bd
       -0.009474799 0.009156267 -0.08144846 -0.06401644
000050 91 7f c7 3d 39 c4 c9 bc e4 29 16 3c 1f 9a 2f 3d
       0.09741128 -0.024629699 0.009165261 0.04287159
000060 fb 05 24 bc d9 48 88 bb c3 ad 55 3c 79 47 a4 bd
       -0.0100111915 -0.0041590747 0.013041916 -0.08021445
000070 b0 98 d1 bc 71 12 2a bc d4 ba 4e 3d 6a 68 43 bd
       -0.025585502 -0.010380373 0.050471142 -0.047707
000080 af 65 8e 3d 2e ee a7 3b 1f 29 3e 3d 6c 54 60 3d
       0.06952988 0.005124829 0.046425935 0.05476801
000090 4a 7f 8c bc 37 84 53 3d d8 dc 91 3c 83 58 00 3b
       -0.01715054 0.05163976 0.017805502 0.0019584007
0000a0 6f 6a bf bc be 56 7d 3c 31 ae c1 bc be bf 1f 3d
       -0.023366181 0.0154625755 -0.023642631 0.03900122
0000b0 89 a8 ef 3b e1 1d 0c bd 6c 59 d7 bc 0f bc 5f bd
       0.007313792 -0.034208182 -0.026287757 -0.054622706
0000c0 3f d1 63 bd cc 24 f4 bc 04 29 bc bc 54 60 57 bc
       -0.055619475 -0.029802702 -0.022968777 -0.013145525
0000d0 8b 77 71 bb 7c ed 85 bd ec e1 12 3d e3 5b f8 bc
       -0.0036844935 -0.06539437 0.035859987 -0.030317253
0000e0 c7 ab 7d bd a3 31 3a 3d 10 c1 15 3d c9 5b 01 bc
       -0.061931398 0.045457494 0.036561072 -0.007895418
0000f0 58 13 22 bd db 4b 9e 3c 60 3b 8c 3c 74 e8 3b 3c
       -0.03956923 0.01932328 0.017118156 0.011468995
000100 b7 91 12 3c 02 15 36 bc a8 78 62 3d 25 9b 73 bd
       0.008945874 -0.011113407 0.055290848 -0.05947413
000110 b3 ff ce 3c ee 2c 09 39 0e 03 6f bc 2c e7 20 bd
       0.025268411 0.00013082076 -0.014588131 -0.039282963
000120 ad b1 4c 3d ab 9a 63 3d 43 99 81 bd cd b8 54 3d
       0.049974132 0.055567425 -0.063280605 0.051934052
000130 31 9b 41 bd 7b 0c 2a 3d bf a7 9b bd 86 76 fe bc
       -0.047267143 0.04151581 -0.076003544 -0.031062376
000140 78 d1 cb bc 86 92 24 bd 6f 2e 47 3b e7 1f 39 bd
       -0.024880156 -0.0401788 0.0030392667 -0.04519644
000150 2d de b6 b9 8d a7 cc bc 60 1d 6f bb 1a 52 98 bb
       -0.0003487928 -0.024982238 -0.0036486015 -0.004648459
000160 d5 10 8b bc 15 76 64 39 b5 0b 23 bd 76 c6 8c 3b
       -0.0169758 0.00021787763 -0.039806087 0.0042961193
000170 c9 30 36 bc 0c a0 55 bb 81 5e 80 bd 28 a6 db bc
       -0.01112003 -0.0032596616 -0.06268025 -0.026812628
000180 73 93 8f bd 03 0a 98 3d e5 25 61 3c f6 9b 09 bd
       -0.070105456 0.074237846 0.013741945 -0.033596
000190 49 17 9c bd df ab b2 3c b2 96 73 3d 5d 06 e0 bd
       -0.07621629 0.02181047 0.059469886 -0.10938714
0001a0 31 cb 4d 3d 1f 69 10 3d 6c e7 31 bc bb 65 b6 bb
       0.050242607 0.0352565 -0.010858398 -0.0055663264
0001b0 b2 6f ed bb 6f 28 2b 3a 69 2e 6f 3b 38 ef 08 3d
       -0.007245981 0.00065291574 0.0036496168 0.03343126
0001c0 51 9d 0e 3c 1f 50 29 3c 78 84 0d bc 06 33 bc bd
       0.008704499 0.010334044 -0.00863754 -0.091894194
0001d0 e2 d3 15 3d 8d 79 9f bd 03 2a 9f 3d e8 10 1f 3d
       0.03657902 -0.07786856 0.07771685 0.038834482
0001e0 5d 05 3d bd 41 72 4d bd a9 9a 88 bc 00 21 85 3d
       -0.046147693 -0.05015779 -0.01667531 0.06500435
0001f0 a1 54 3d 3c fd c5 57 3d 33 66 a3 3c 60 51 d6 bc
       0.011555822 0.05267905 0.019946193 -0.02616185
000200 d9 b6 29 bd 4c 24 aa 3c 31 72 2a 3d 24 21 28 bd
       -0.041434143 0.02076926 0.041612808 -0.04104723
000210 33 37 17 3d 4a 17 b6 bd 39 eb 48 3c b2 99 5d 3c
       0.036917876 -0.08891161 0.012263113 0.013525413
000220 9b 7f 82 3d d4 3c 16 bd 60 a0 56 bd 50 10 11 bd
       0.06371995 -0.036679104 -0.05239904 -0.035415947
000230 52 4e 52 3c c9 4f f6 3c 0a 52 3d 3c 0d de 93 3c
       0.012836056 0.030067341 0.011555204 0.018050218
000240 ad c0 bc bc 21 cd 15 3d 12 0d 18 bc 89 d4 5a 3d
       -0.023041094 0.03657258 -0.00928046 0.053425346
000250 1c e3 4f bc bd 11 22 3d 57 1b f8 3c 7a f0 ae bd
       -0.012688424 0.039567698 0.030286474 -0.08541961
000260 7e 01 40 bd 0a 84 eb bc 5b f8 2b bd 6a c4 0c 3b
       -0.046876423 -0.028749485 -0.041984897 0.0021479377
000270 db 86 e8 3b 46 f9 37 3d 67 0f c0 bc de 48 24 bd
       0.007096154 0.04491546 -0.023444844 -0.040108554
000280 bc 35 0b 3d d5 af 80 bd b0 99 83 bc 2a 73 01 bd
       0.033986792 -0.06283537 -0.016064495 -0.03160397
000290 cb 0b 34 3c 43 67 24 3d ff 9c 17 bd 81 d6 9b bd
       0.01098914 0.04013754 -0.037014958 -0.07609273
0002a0 86 20 01 bd 82 01 6b bd 8d d6 a9 3d f8 b3 51 3d
       -0.031525157 -0.057374485 0.082928754 0.051197022
0002b0 8e 56 64 3d 6f 16 25 bd ab c6 b0 bb 30 70 79 3a
       0.055746607 -0.040304597 -0.005394777 0.00095153134
0002c0 0a 1d 28 bc 3b 7d 52 3c f2 b2 f0 3c be 9f 01 be
       -0.01026083 0.01284724 0.029382203 -0.12658593
0002d0 5e c3 53 bc be 13 76 3c 21 8c 22 3d 7e c2 e2 3b
       -0.012924997 0.015019355 0.03968442 0.006920158
0002e0 e5 c2 28 bd 27 fa 97 bc 0c 55 54 3d 6c 16 ba bd
       -0.04120149 -0.0185519 0.05183892 -0.09086308
0002f0 8f ea 88 3d 51 3b e5 3a 79 5a 95 3d c1 c2 79 bd
       0.066853635 0.0017488991 0.07292647 -0.060976747
000300 ca e1 6f bd 3f e6 00 bc 3d 2e b4 3c 65 1a 13 bd
       -0.05856494 -0.007867395 0.021994704 -0.035913844
000310 fe 8c 48 bd 49 f7 7d bd a3 1b 81 bd 9a 8d b8 bd
       -0.048962586 -0.062003408 -0.063040994 -0.09011383
000320 08 f0 53 3d 2b 9c 33 3d 22 ec ca bc 54 f2 cb bc
       0.051742584 0.043850105 -0.0247708 -0.024895824
000330 9b 74 27 bc a4 e3 f8 bb 8d ce 3d 3d 60 d2 79 3d
       -0.010220672 -0.0075954963 0.04633956 0.060991645
000340 5c e6 d2 3d 02 b6 22 3d 00 9e 35 3d 60 66 07 bb
       0.10297844 0.039724357 0.044340134 -0.0020660385
000350 65 aa 30 bd 13 af 86 bc 9d ec 16 bd 92 d0 90 3c
       -0.04313125 -0.016440904 -0.036846746 0.01767758
000360 e9 9a 88 3d 08 b7 29 bd 02 d1 e5 3c 99 56 b6 bd
       0.06670172 -0.041434318 0.028053764 -0.08903236
000370 b8 56 15 bd da 15 66 3c fe 8a b1 3d 08 fc f5 bb
       -0.036459655 0.014043296 0.08669089 -0.007506851
000380 b3 e6 27 bd ae 9c a0 3b 6f 75 8a bc e2 d0 95 3d
       -0.040991496 0.00490149 -0.0169017 0.07315232
000390 8d 1b ac 3d 09 48 90 bc 63 a1 6b 3c 45 c0 0b 3d
       0.084036924 -0.017612474 0.014381739 0.03411891
0003a0 7c 02 09 bd aa 85 7e bc 0c 44 ba bc ae c8 81 3d
       -0.033449635 -0.015534798 -0.022737525 0.06337105
0003b0 f1 f6 d7 bc 1a 5f a0 3c 3b 8b a0 3c 1f 3b 17 bd
       -0.026362868 0.019576598 0.01959764 -0.036921617
0003c0 03 7b d2 bc e5 96 dc bc 2f 2b 28 3d 16 bd d0 bc
       -0.025693422 -0.02692742 0.041056808 -0.025480788
0003d0 4f d9 8f bc 8d f5 1e bc 2d 2b 8b bd 1d 89 84 bd
       -0.017559675 -0.009702099 -0.067953445 -0.06471465
0003e0 5c 40 21 bd b5 1b 65 3d b1 8a ba 3c e8 52 13 3d
       -0.03936802 0.055934627 0.022771211 0.035967737
0003f0 ef 0c 52 bd f9 09 fe bc 28 c5 a5 3c 81 d6 71 bd
       -0.051281866 -0.031010615 0.020235613 -0.059042457

fc3.weight f4 [128, 256]
000000 ac 20 bc bd c7 82 8e bd 38 89 0a bc 59 90 20 3a
       -0.09185919 -0.069585375 -0.008455567 0.0006125025
000010 12 ea 98 3c 2a 5b 12 bd d8 72 43 3b 02 d0 a7 3d
       0.0186663 -0.035731472 0.002982309 0.08193971
000020 75 e5 a8 3d 2b 09 cf bd a8 84 e3 bd 54 5a ef bd
       0.082468905 -0.101091705 -0.111092865 -0.116871506
000030 7e d1 39 3c df 55 04 3d f2 45 31 bd 30 df 7f 3d
       0.011341451 0.032308456 -0.043279596 0.062468708
000040 9d f2 09 be 7a 3c 4b bd c0 08 e3 bc c8 99 4a bd
       -0.13471456 -0.04961822 -0.027714133 -0.049463063
000050 65 c2 8e 3d 79 df 10 3d 7f c3 94 3d 58 4e 2f 3d
       0.069706716 0.03536937 0.072638504 0.042799324
000060 a5 63 45 bd 8d be 3a 3d d1 8c e0 3c b7 c1 16 be
       -0.04819073 0.04559188 0.027410896 -0.14722334
000070 3a 8c 89 3c 2b ff 13 3d 47 f2 29 3d f0 fc 53 3d
       0.016790498 0.03613202 0.04149082 0.051754892
000080 ef ee 5f 3d a5 77 ac bb 81 07 52 3b 94 e8 c1 bd
       0.054671224 -0.005263286 0.003204793 -0.09468189
000090 e2 16 4e bd ec 07 cb 3c 65 30 1b 3d 3b ab 86 3c
       -0.05031479 0.02478405 0.03788795 0.01643907
0000a0 6e 0a c0 bc 11 f0 65 bd 0e 74 92 3d ea 51 a5 bd
       -0.023442473 -0.05613715 0.07151042 -0.080722645
0000b0 28 18 89 3c fc 76 41 3a 82 3e 1b bd 95 e3 47 bd
       0.016735151 0.0007380096 -0.03790141 -0.048801024
0000c0 f4 c5 e6 bd eb 8b 1d 3d 4a 7b 05 bd 7e 0c da b9
       -0.11268225 0.038463514 -0.03258828 -0.00041589508
0000d0 54 01 4e bd af 26 7a bd 88 ce ee 3d 2d af 97 bc
       -0.050294235 -0.061072048 0.116604865 -0.018516148
0000e0 35 ca 33 3d 04 2b 0c bb 41 e0 d6 bc 63 d1 50 3c
       0.04389401 -0.0021387944 -0.02622998 0.012745234
0000f0 c3 09 87 ba b0 15 b8 3d ee 63 5e bd 01 9d 80 be
       -0.0010302592 0.089885116 -0.05429452 -0.25119784
000100 b3 86 10 3d f3 ed 58 bd 13 7e 23 3d 0c ea 40 3d
       0.03528471 -0.0529613 0.039915156 0.047098204
000110 69 e8 e9 3d 83 82 c2 3d 2e c5 93 bd d4 5a 9a bd
       0.11421282 0.094975494 -0.072153434 -0.07536855
000120 71 da b1 bd 6e bf 6e 3d 3d b7 3a be c2 64 94 3d
       -0.086842425 0.05828803 -0.18233962 0.072457805
000130 fd ae a5 3d e4 b9 59 3d 3f 24 fa bc d6 b1 e7 bb
       0.08090017 0.053155795 -0.030534862 -0.0070707602
000140 84 21 90 3d 60 24 8d bd c0 0e 8d 3d d3 56 5a 3c
       0.070376426 -0.068917036 0.06887579 0.013326365
000150 0a fe 37 3c f4 57 a6 3d 18 5e a6 3d d2 99 9e bd
       0.011230001 0.081222445 0.08123416 -0.07744183
000160 a0 87 0a 3d 07 a0 09 3d 2a 6e 05 3d f8 7d eb bd
       0.03382075 0.03359988 0.032575764 -0.11498636
000170 e4 c1 bb bd d0 65 0a bc 19 24 84 be f2 28 8c 3d
       -0.09167841 -0.008447126 -0.2580879 0.06843747
000180 49 d1 f7 bd 26 ad 82 3d 63 fe 8a 3d de d7 88 bd
       -0.12100465 0.06380682 0.06786802 -0.066817984
000190 bf ae ed bd 76 9b 0b bd de 92 7f 3d e6 1c 0b be
       -0.11605596 -0.034083806 0.062395923 -0.13585243
0001a0 ad 64 41 3d 86 30 df 3c cc 6e 65 bc a7 fc 89 bd
       0.047215153 0.027244817 -0.014003467 -0.06737643
0001b0 df 44 e2 bc 25 2d 90 3c 8b 5e a9 bd 0d 68 91 bb
       -0.02762073 0.017599652 -0.08269986 -0.0044374526
0001c0 b9 86 85 3d c9 ba 3e 3c 7e e7 00 3e 39 fe 0d be
       0.06519837 0.011641213 0.12588307 -0.1386651
0001d0 fd a0 ca 3b 65 ef 3b 3d b8 ce d4 3d 5e 2f 53 bd
       0.006183742 0.0458826 0.10390991 -0.051558845
0001e0 3e e7 b9 bc 92 60 89 bd 89 d2 89 bc 8e 1f 85 3d
       -0.022693273 -0.067078725 -0.016824024 0.06500159
0001f0 ed 25 58 3d 44 34 95 3a ea 15 da bd df c9 d3 3c
       0.052770544 0.0011383374 -0.10648711 0.025853096
000200 51 3c 93 bd 00 3a 13 bd b2 16 35 3c df 34 da bc
       -0.07189239 -0.035943985 0.011052774 -0.026636539
000210 54 ef 2b bd 0f 7f 58 3d b0 12 94 bd 55 49 df 3c
       -0.041976288 0.052855548 -0.07230127 0.027256647
000220 35 c7 8a bd 0b 76 7e 3d e6 ef a6 3d 3f 17 9c bd
       -0.06776277 0.062124293 0.08151226 -0.07621621
000230 77 fa e2 3c 43 25 01 3e 65 7e aa 3d f1 05 b1 bc
       0.027707322 0.1261187 0.08324889 -0.021609278
000240 1d 99 83 3d f0 d1 cd bd e0 60 2d bd 36 7d 85 bc
       0.064256884 -0.10049808 -0.042328715 -0.016295057
000250 d5 6c a7 3c e2 bf 0a be 3f 18 24 3d b7 ea 95 bd
       0.020437637 -0.1354976 0.040062185 -0.07320159
000260 56 80 7f 3d 19 f5 09 3e 40 88 1d bd cf 32 7c bd
       0.06237825 0.13472404 -0.038460016 -0.061571892
000270 1c 20 9e bd 96 cf 62 3d 88 98 84 3b a6 a4 df 3c
       -0.07720968 0.05537375 0.0040465035 0.02730019
000280 b5 6f 0f 3d d1 e4 2a 3d f8 66 3d bd b2 f5 d8 bd
       0.03501864 0.041722123 -0.046240777 -0.10593738
000290 d6 4f a3 bc b2 b7 ca 3d d9 43 e9 bc 94 71 95 bd
       -0.01993553 0.09898318 -0.028474735 -0.07297054
0002a0 51 06 b5 bc 47 a2 d3 bd 7a 33 89 3c 14 f9 18 3d
       -0.022097738 -0.10333686 0.016748179 0.037346914
0002b0 2b 2d b0 bb da 74 06 be 37 41 f4 bc fa d4 33 3d
       -0.005376478 -0.13130513 -0.029816253 0.043904282
0002c0 5a b9 12 be d6 9a 50 bd 6c 51 10 bd e4 73 5d bd
       -0.14328519 -0.050928913 -0.0352339 -0.0540656
0002d0 00 31 55 bc 21 cd 22 3d 16 a4 b5 3c 07 28 d8 bd
       -0.013012171 0.039746407 0.022172969 -0.105545096
0002e0 6e 64 9f 3b 0a 58 a2 bc a0 be 3c 3d a9 b2 41 3d
       0.004864267 -0.01981737 0.04608023 0.047289524
0002f0 47 9b 6b bd e2 51 87 3d ff 53 a6 3d c2 9e fb 3d
       -0.05752113 0.06607415 0.0812149 0.1228614
000300 1b 33 63 bd cc 93 15 bd 74 f5 d0 3c cf 82 b4 3d
       -0.05546866 -0.036517903 0.025507666 0.08814012
000310 7c 88 13 be d9 78 75 3c f5 86 a1 3c 10 4e 59 be
       -0.14407533 0.014982426 0.019717673 -0.21221185
000320 17 9d 85 3d 42 5c 66 bd 54 5b 17 bd 06 87 48 bd
       0.06524103 -0.056240328 -0.03695233 -0.048956893
000330 73 0f 38 3d d9 72 57 bd c7 73 42 bd 8c 71 eb bd
       0.04493661 -0.05259976 -0.047473695 -0.11496267
000340 14 7c 61 3d 42 40 ea 3c d1 bd c6 3d 36 66 be 3c
       0.05504997 0.028595094 0.09704173 0.023242097
000350 bc 96 85 bd a2 91 4c 3c 36 83 6b bd 19 fd 3f bd
       -0.06522891 0.012485893 -0.05749818 -0.046872232
000360 18 dc 53 3d b8 4d 37 3a 2a e6 86 3c 87 06 c2 bd
       0.05172357 0.0006992477 0.016467173 -0.09473901
000370 a2 a1 37 3c 9e 28 87 bd 52 14 10 3d 2a af 8c 3a
       0.01120797 -0.06599544 0.03517563 0.0010733355
000380 80 c3 e5 bc 16 a6 88 3c 95 2e 9a bc 63 6e 9b bd
       -0.028047323 0.016680758 -0.01882104 -0.07589414
000390 7d 40 ce 3c 8c bf 2a 3d 40 96 3f bd bf 70 85 3d
       0.025177235 0.04168658 -0.04677415 0.06515645
0003a0 44 f4 73 3d 09 52 3b bc 5e 15 23 bd 3c 90 3c 3d
       0.05955912 -0.011433133 -0.0398153 0.04603599
0003b0 8f ec 41 bc 94 d0 a5 3d 78 46 a7 bb 94 c5 11 3d
       -0.011836185 0.08096424 -0.005104836 0.035588816
0003c0 40 d3 8c 3c d9 b2 84 3c c9 c7 a3 bd 66 2e 6a 3d
       0.017190576 0.016198562 -0.0799709 0.057173155
0003d0 db d0 86 3d 07 30 4a bc 53 eb 9c 3d 7f 36 94 3d
       0.06582805 -0.012340552 0.07662072 0.07236957
0003e0 97 70 ad bd ab 77 75 bd 43 40 4c 3d 81 60 35 bc
       -0.084687404 -0.059928577 0.049865972 -0.011070372
0003f0 26 70 c0 3d f8 07 09 3d d5 db eb bd 57 dc c5 bd
       0.093963906 0.033454865 -0.11516539 -0.09661167

fc3.bias f4 [128]
000000 bd 3f 31 3c c2 92 c1 bd 7e c3 b4 3d 07 c0 87 3c
       0.010818419 -0.0945182 0.0882635 0.016571058
000010 54 f4 8a bd bd 95 23 3d 04 fd 2e bd 25 6c c4 3c
       -0.06784883 0.039937723 -0.042721763 0.023977349
000020 4e 46 c8 3c 57 61 2d 3d 7d 91 8b 3d 73 28 8c bd
       0.024447586 0.04232916 0.06814859 -0.068436526
000030 77 0b 78 bd 59 51 17 3d 0e f2 8a bd 74 00 da bc
       -0.06055781 0.036942814 -0.067844495 -0.026611544
000040 cb a4 14 bb 96 9f 15 bd 7c f9 44 3d af 7b 74 bc
       -0.0022681232 -0.036529146 0.04808949 -0.014922067
000050 5f f7 44 bd fc 3d 8f bc 47 26 cc bd 80 9f 97 bb
       -0.048087474 -0.017485611 -0.09968238 -0.004627168
000060 5c 65 b9 bb 6d f6 b2 bd 91 91 91 bb c3 1e fe 3d
       -0.005657835 -0.08738408 -0.0044424017 0.12408211
000070 44 ce 22 3d 6b e7 e2 3c 39 a8 d4 3d 16 fa 80 3d
       0.03974749 0.02769824 0.103836484 0.062977
000080 86 a2 43 bd 0e 00 a2 bd 69 7b 87 3d f6 f0 b9 3b
       -0.047762416 -0.07910167 0.066153355 0.0056744767
000090 cc 0a 85 bd 44 59 b4 bd 72 fe f1 3d ad c6 3e 3d
       -0.064962 -0.088060886 0.1181611 0.04657619
0000a0 d4 3e 09 bd d9 56 1a 3c 4e 6d 01 bd 0a 06 8d bd
       -0.033507183 0.00942012 -0.03159838 -0.068859175
0000b0 e8 93 64 3d 91 1d 0f bd fe e4 76 3c 37 f8 61 bd
       0.055805117 -0.034940306 0.015069244 -0.055168357
0000c0 47 78 46 bd c7 aa 17 bd fb d3 b6 3d 50 7f 3f bd
       -0.04845455 -0.0370281 0.08927151 -0.046752274
0000d0 db 7e 9e bb 11 dc 68 3c e9 10 85 bd 28 90 76 bd
       -0.0048368997 0.014212624 -0.06497366 -0.060196072
0000e0 4a 9c d9 3c 2a e8 c3 3d b9 77 f1 bd a3 4e 30 bd
       0.026563782 0.09565766 -0.117904134 -0.043043744
0000f0 66 42 0b bd d7 97 fa bd d7 47 20 bd 72 4f 6f 3c
       -0.03399887 -0.122359924 -0.03913101 0.014606344
000100 2f 05 a0 3d ee 11 0f 3c 18 bf e0 3d af ed 86 3d
       0.07813489 0.008732302 0.10973948 0.06588303
000110 16 93 4b bd 31 bc b3 3d 74 53 b7 3d 09 79 eb 3b
       -0.04970082 0.08776129 0.08951464 0.0071860594
000120 70 10 85 3d b0 43 1c bd b2 a3 bb bc b5 b9 b2 bc
       0.06497276 -0.03815049 -0.022905204 -0.021817068
000130 5f b8 0a 3c a1 3d bb bc 7d 26 e0 bc 14 e0 c2 bd
       0.008466809 -0.022856535 -0.027362103 -0.09515396
000140 c4 8a e4 3c 0e 02 ab 3d 77 60 43 3d 2e 52 b2 bd
       0.0278982 0.08350001 0.047699418 -0.08707081
000150 7e e6 f2 3d 26 1e 87 bd b2 cc c3 bc 92 de 93 bd
       0.11860369 -0.06597547 -0.023901317 -0.07220186
000160 f8 dc 6c bd 8b 14 ad bd 4b 29 5d bd 0d 79 d8 3d
       -0.05782792 -0.08451184 -0.05399446 0.105699636
000170 27 3c d6 bd 79 b7 3a 3d 35 52 3e 3d 7c 12 64 3c
       -0.10460692 0.04558513 0.046465117 0.013920423
000180 b3 61 90 3b e6 6d 4a bd 1e ad 8f 3d 01 75 03 be
       0.004406178 -0.049421214 0.07015441 -0.12837602
000190 75 9d ce bc 51 84 c2 3c 8c 5e 15 be 22 e3 02 be
       -0.025221566 0.023744734 -0.14586848 -0.12781957
0001a0 89 e2 80 3c 0a e4 5b 3d 52 ad 8e 3a 6a 0a d0 3c
       0.01573302 0.053684272 0.0010885394 0.02539559
0001b0 ed 5e dc 3c ef 50 df 3d 4a ed 24 bd fa 76 81 3d
       0.026900733 0.10904109 -0.04026536 0.06321521
0001c0 d1 a3 00 3e 31 1d ea bd fd ab 56 bc b1 80 1a bd
       0.12562491 -0.11431349 -0.013102529 -0.037720386
0001d0 ee 7c 57 3d 55 37 64 bc 89 48 9b 3d 9f 51 37 3d
       0.052609377 -0.013929208 0.07582194 0.044755574
0001e0 3a d6 59 bb 6a ac 31 3d d6 0a 0f 3c aa 0b 6e bd
       -0.0033239261 0.043377317 0.008730611 -0.058116592
0001f0 99 72 46 bd 99 4f e3 bd d4 ff 40 3b 7b 2e 6c 3d
       -0.048449133 -0.110991664 0.002944936 0.057661515

fc4.weight f4 [1, 128]
000000 41 85 37 3d 14 38 8c bd 83 23 94 3c 8d b3 2a 3d
       0.044804815 -0.068466336 0.01808334 0.04167514
000010 e9 ad 65 bc 2f 9e 42 3d e7 94 cb 3c 89 17 4b 3d
       -0.014018514 0.047514137 0.024851276 0.04958299
000020 36 e9 f9 3c c1 09 91 3c 9e 68 e8 3c 5b 15 4e bd
       0.030506711 0.017704846 0.028370198 -0.050313335
000030 73 c5 63 bd e3 b3 04 bd 66 f8 9b 3d 96 49 70 3d
       -0.055608224 -0.032398116 0.076157376 0.058663927
000040 ec a6 e9 bc b3 3f d8 bc 02 49 87 3d e9 48 3e 3d
       -0.028521977 -0.026397562 0.06605722 0.04645625
000050 7e 95 6d bd eb e7 9e 3d 42 92 d8 bc 8a 92 05 3d
       -0.058003895 0.077590786 -0.026436929 0.032610454
000060 7a 3c 4b 3d d8 b0 7b bd 24 4a 9b bc 6e 17 14 3d
       0.04961822 -0.06144795 -0.018956251 0.036155157
000070 d2 a4 89 3d 48 88 13 bd 12 26 ab 3c b7 a7 6a 3d
       0.0672089 -0.03601864 0.020892177 0.05728885
000080 c1 9a 2f bd 4d 00 24 bd b3 e7 6f 3d 18 bc a0 3c
       -0.042872194 -0.04003935 0.058570575 0.01962094
000090 08 a3 c5 bc bb c5 1f bd c3 c2 a6 3c 0e de a3 3c
       -0.02412559 -0.03900693 0.020356541 0.020003345
0000a0 c2 04 61 bd 66 25 f1 3c 09 f8 d9 bc a8 92 9e bc
       -0.054936178 0.029436778 -0.02660753 -0.01935704
0000b0 85 8c a1 3d df 6f 81 bd aa 0d 35 3d ac 7d 56 3d
       0.0788813 -0.06320166 0.044202484 0.052365944
0000c0 89 0c 04 bd d8 ff a1 bc ce 67 16 3d 56 bb 3a 3d
       -0.032238517 -0.019775316 0.03672009 0.045588814
0000d0 c4 5d 9d bd b2 53 05 3d 95 27 97 bd 88 d5 bd bc
       -0.076839 0.03255052 -0.073805965 -0.023173109
0000e0 eb a1 2b 3d 9c cb 52 3c 70 23 f0 bc 59 70 41 bd
       0.041902464 0.012865927 -0.029313773 -0.047226284
0000f0 1d 22 3d 3d b9 7f 2b bd fb 2c 43 bd 0d 27 0e 3d
       0.04617511 -0.041869853 -0.04765032 0.03470521
000100 1a d8 4e 3d 49 cd ed bc 1c 04 82 3c 43 9f c0 3c
       0.05049906 -0.029028552 0.0158711 0.023513442
000110 9b d4 b3 bc c0 16 5a 3c 3a 73 15 3d 6d ea f6 3c
       -0.021951964 0.013311088 0.03648684 0.03014108
000120 33 a8 6b 3c ec a7 0c bd 8a 8e 3d bb d0 41 a3 3d
       0.014383364 -0.03433983 -0.0028924071 0.07971537
000130 49 fa 14 3d 39 2d 5d bd 43 fc 3a bd ab 75 bf bc
       0.036371503 -0.053998206 -0.04565073 -0.023371538
000140 ca 37 12 3d 3d d0 f8 3c bc 8f a6 bd 7f 35 eb bc
       0.035697736 0.030372733 -0.08132884 -0.028712032
000150 cf 15 7d 3c ae 84 03 bd 31 9b 82 3d 15 16 c8 bc
       0.015447094 -0.032108955 0.06377257 -0.024424592
000160 8b 43 d4 bc e3 76 aa bc 94 78 80 bd d7 a1 22 3c
       -0.025911113 -0.020808643 -0.062729985 0.009926281
000170 a7 f1 08 bd 48 86 82 3c 60 e1 95 3d 66 86 0d bd
       -0.033433583 0.01593317 0.073183775 -0.034552
000180 4f e9 e5 3c 1a eb 15 bd 11 cb a3 3c 85 41 ae bc
       0.028065352 -0.036601163 0.01999429 -0.021271477
000190 fc 3f df 3c 1f 08 90 3c e3 e3 9d bc c5 a1 40 bd
       0.02725219 0.017581997 -0.019273704 -0.047029275
0001a0 bf d3 7c 3d 22 de 79 3c dd f8 e9 bc ce bd 99 3c
       0.061725374 0.0152507145 -0.02856105 0.018767264
0001b0 44 86 47 3d 27 1d 53 3d 97 c7 03 3d 46 71 2d 3d
       0.04871203 0.051541474 0.032172766 0.042344354
0001c0 33 1d 87 3c ea 71 15 bd ea ba 7a 3d 44 ea a3 3d
       0.016493415 -0.03648559 0.06121341 0.08003667
0001d0 76 8f 40 3d b7 cc de bc 19 74 83 3d 1d 65 ff 3c
       0.047011815 -0.027197225 0.06418628 0.031176144
0001e0 45 65 28 3d b8 a8 45 3d 0d 9b 10 bd c4 ca 18 bd
       0.041112203 0.048256606 -0.035304118 -0.037302747
0001f0 51 ae 84 3d 4f 88 b7 bc 92 74 84 bd 8c 5a bd 3c
       0.06478561 -0.022403864 -0.064675465 0.023114465
