checkpoint_actor1.pth (torch_old, 159146 bytes, 6 tensors)

fc1.weight f4 [256, 24]
000000 a0 9f 16 c0 ba 31 89 40 73 1c e3 3e 65 92 a6 bf
       -2.3534927 4.28732 0.44357643 -1.3013426
000010 d0 50 81 bf 6a dd 08 c1 25 b3 d1 3e 7b 19 a4 bf
       -1.0102787 -8.554056 0.4095699 -1.2820276
000020 33 ff 0d c0 8f 36 97 40 ac f3 3b 3e 58 99 dd 3f
       -2.2187011 4.72541 0.18354672 1.7312422
000030 cb 2f 8c 3e bc 3e 1c c1 5c 66 b9 3d 52 a3 d7 3f
       0.27380213 -9.765316 0.090527266 1.6846716
000040 b8 2b f0 bf d2 4c aa 40 16 b1 0b 3d 43 84 b4 3f
       -1.8763342 5.3218775 0.03410443 1.4102863
000050 dd d0 8e 3f da 45 22 c1 81 9e 8d 3d 97 18 ad 3f
       1.115749 -10.142054 0.06914998 1.3523129
000060 8d 2b 63 bf c2 84 43 40 ec d4 96 3c e4 bd 86 bf
       -0.8873833 3.054978 0.018412076 -1.05267
000070 85 57 21 c0 51 02 ac c0 ff fa 1e bd ec 91 89 bf
       -2.5209668 -5.375283 -0.038813587 -1.0747657
000080 5b 80 c1 be aa 5a 23 40 34 b3 da be 58 10 2e c0
       -0.3779324 2.5524087 -0.42714846 -2.7197475
000090 3f 64 12 c0 81 2c ba c0 4b 1d 05 bf 78 56 2b c0
       -2.2873685 -5.8179326 -0.5199782 -2.6771526
0000a0 78 a1 0d bf 44 06 3d 40 d5 69 40 bf f9 b0 29 bf
       -0.55324507 2.9535074 -0.75161487 -0.66285664
0000b0 80 03 d7 bf c6 08 e5 c0 37 c6 44 bf c3 26 27 bf
       -1.6797943 -7.157321 -0.7686495 -0.6529352
0000c0 fe 07 7a 3f 29 07 1f c0 40 d6 06 3e 62 81 0e c0
       0.97668445 -2.484812 0.13167667 -2.226647
0000d0 05 6a 47 bf bc 62 eb 3f 60 d8 21 3e 3a d7 08 c0
       -0.7789615 1.8389506 0.15805197 -2.1381364
0000e0 45 f5 de 3f 1c f0 01 c0 42 0f fa be 68 a9 cf c0
       1.74186 -2.03028 -0.48839766 -6.4894295
0000f0 06 4c 84 be 2f 42 03 3d 80 05 ff be 46 36 cf c0
       -0.2583925 0.03204554 -0.49808884 -6.475375
000100 17 63 9f 3f db fb 0a c0 2b e4 bb bf 2f 3e d9 3f
       1.2452115 -2.171622 -1.4679006 1.6972102
000110 ab db 10 3d 8e 8f 63 bf 41 89 b5 bf 93 06 e1 3f
       0.03536574 -0.8889092 -1.4182512 1.7580131
000120 c2 94 a3 3f d8 09 c6 40 d0 f7 bf bf 26 9a 47 c0
       1.2779772 6.1887016 -1.4997501 -3.1187835
000130 a1 6f 15 bf 73 68 98 bf e4 ef ca bf 5a b1 43 c0
       -0.5837346 -1.1906875 -1.5854459 -3.0576997
000140 a6 c2 39 3f fb cf 96 40 f1 6b 99 bf 8a 40 a4 bf
       0.72562635 4.7128882 -1.1986066 -1.2832196
000150 fe 2d ae bf 97 57 da bf f9 a5 96 bf 2c ed a9 bf
       -1.3607786 -1.705798 -1.1769401 -1.3275504
000160 85 36 95 3c 25 97 42 40 58 b0 a8 bd 54 83 be bf
       0.018214474 3.0404751 -0.0823676 -1.4883828
000170 65 c4 4a c0 58 b7 d0 3c a1 aa ed bd 70 0e ca bf
       -3.168237 0.02547805 -0.116048105 -1.5785656
000180 5c 30 c7 40 58 32 a7 bf ae 2b 16 3f a5 b0 28 c0
       6.2246532 -1.3062239 0.586604 -2.6357815
000190 de e6 b0 40 a6 ef 7d be c2 ab 21 3f 17 09 26 c0
       5.528182 -0.2479845 0.63152707 -2.5943048
0001a0 c8 db ae 40 f8 81 02 c0 7b 36 2c bf b3 08 0f 40
       5.464329 -2.0391827 -0.6727063 2.234906
0001b0 82 5d 70 40 57 81 07 bf e1 d0 32 bf 2b 9f 0e 40
       3.7557073 -0.5293173 -0.69849974 2.2284648
0001c0 4a 8a dc 3f 0a 5e 80 c0 48 05 92 bf d9 fa f7 bf
       1.7229702 -4.0114794 -1.1407862 -1.9373428
0001d0 5e fb 8a 40 82 3b 3c be 40 d5 8e bf 4d 63 ec bf
       4.3431845 -0.18382075 -1.1158829 -1.8467804
0001e0 92 e7 22 40 db 32 c1 c0 b7 bb 8a be 2c ed 71 3f
       2.545384 -6.037458 -0.2709634 0.9450252
0001f0 f7 30 68 c0 79 f0 ed c0 bd 44 a9 be fc 2c 7d 3f
       -3.6279886 -7.4356046 -0.33060256 0.98896766
000200 cf 78 40 40 8c 81 03 c1 dd 32 d6 3e 3b 5f 6f 40
       3.0073736 -8.219128 0.4183568 3.7401874
000210 18 30 b7 bf c6 33 9b c0 c3 ef a9 3e 5f db 6a 40
       -1.4311552 -4.85007 0.33190736 3.6696393
000220 01 26 05 40 0f f3 0b c1 45 8c 9a bf 68 1d 2d 40
       2.0804446 -8.7468405 -1.2074057 2.7049198
000230 88 fc 81 3f dd 3a 72 c0 ad 1f a2 bf 82 85 2c 40
       1.0155191 -3.7848427 -1.2665917 2.6956487
000240 24 3e c8 3f 9c 5d 14 40 68 f7 96 bd c3 59 64 40
       1.5643964 2.3182135 -0.07371408 3.5679786
000250 93 b0 69 bf a9 a0 83 c0 be 4e b5 bd 09 8f 62 40
       -0.91285056 -4.113362 -0.088529095 3.5399802
000260 04 f4 a9 3e a8 27 5d 40 c2 47 d8 bd e0 9d 88 3f
       0.33193982 3.4555454 -0.10560562 1.067318
000270 df 9c 00 c0 6f e0 ce c0 a0 70 c5 bd 36 a5 8e 3f
       -2.0095747 -6.4648967 -0.09640622 1.1144168
000280 92 6e 41 3f c5 06 81 40 23 13 52 bf 1a d3 05 40
       0.7555934 4.0320764 -0.8206045 2.0910096
000290 11 88 51 c0 b7 d0 26 c1 a9 32 44 bf ec 3d 02 40
       -3.2739298 -10.425956 -0.766398 2.0350294
0002a0 8a 25 be 40 b2 21 89 bf 53 38 66 bf 07 a7 c6 bf
       5.9420824 -1.0713408 -0.89929694 -1.5519723
0002b0 f1 b1 97 bf bc 47 67 bf b7 58 73 bf 71 25 cf bf
       -1.1851178 -0.9034383 -0.95057243 -1.6183301
0002c0 3a 5b 59 40 34 78 ec bf 0d 9a 56 bf d0 26 b6 bf
       3.396193 -1.8474183 -0.8382881 -1.4230595
0002d0 89 83 0a c0 01 09 c9 3f e1 d0 56 bf f6 f3 b1 bf
       -2.1642783 1.5705873 -0.83912474 -1.3902576
0002e0 a2 cd 9d 40 8c 79 09 c0 fc f0 91 3f 45 87 02 c0
       4.9313517 -2.1480436 1.1401668 -2.0395062
0002f0 67 c2 fe be 41 5c eb 3f 6a 7f 87 3f 0f f4 ff bf
       -0.49757692 1.8387529 1.0585759 -1.9996356
000300 e8 8c 71 be c4 ba 73 c0 ed 95 5b bf 04 8a 65 40
       -0.23588908 -3.8082743 -0.85775644 3.5865488
000310 0c 3d e7 bf 7f 6f 46 bf a9 c5 4d bf b0 f4 65 40
       -1.8065505 -0.7751388 -0.8037973 3.5930595
000320 ba 73 d6 3f d6 1b b3 bf 21 f2 4b 3e d0 b5 02 40
       1.6754067 -1.399287 0.19916584 2.042347
000330 31 8b e6 bf e9 74 e7 bf 2a fd 96 3e 0a 04 fa 3f
       -1.8011228 -1.8082553 0.29490024 1.9532483
000340 11 59 0f 40 a8 cd bd bf 34 dc 11 3e cb 64 85 3f
       2.2398112 -1.4828386 0.14244157 1.0421385
000350 73 8b 29 c0 6d 1e 23 c0 62 b8 17 3e 02 33 87 3f
       -2.6491363 -2.548732 0.1481643 1.0562441
000360 07 7f ef be 80 cf 9d c0 21 c3 09 bf 89 c9 68 3f
       -0.46776602 -4.9315796 -0.5381337 0.9093252
000370 71 1d 9f c0 4e 2a 95 c0 d3 ba 03 bf 7d 5c 5e 3f
       -4.972344 -4.661414 -0.51456946 0.86859876
000380 e9 cc a7 3e 3c cc 80 c0 a8 6f 61 bf d6 70 9c bd
       0.32773522 -4.024931 -0.88061 -0.07638709
000390 ab de a7 bf 17 7f 9f c0 6c 7e 66 bf b3 10 3b bc
       -1.3114828 -4.984264 -0.90036654 -0.011417556
0003a0 b0 37 95 3b de a6 4a c0 15 ec 39 3d e4 a1 74 40
       0.0045537576 -3.1664348 0.04539116 3.822381
0003b0 5e 41 79 3f 55 7a 97 c0 48 ea 96 3d 23 1a 73 40
       0.9736537 -4.733683 0.07368904 3.7984703
0003c0 a0 c5 11 40 f0 64 07 40 0b 6d d8 3d 20 84 d3 3f
       2.277687 2.1155357 0.10567673 1.6524696
0003d0 e0 1e c4 bf c1 d3 5a c0 fe 57 3b 3d 5a 72 db 3f
       -1.5321922 -3.4191744 0.045738213 1.7144272
0003e0 e5 da 29 40 e2 86 52 40 c5 09 5e 3e 99 87 c7 be
       2.6539853 3.2894826 0.21683414 -0.3897064
0003f0 27 6c 37 3e 02 99 5f c0 9d 63 2b 3e 47 03 f7 be
       0.1791235 -3.4937139 0.16737218 -0.48244688

fc1.bias f4 [256]
000000 75 75 4a 3e 39 30 cd bf 60 44 36 c0 25 95 c3 3e
       0.19771369 -1.6030341 -2.8479233 0.38199726
000010 ea d0 7b 3e 0e e7 bd bf 23 38 86 bf 7a ed b1 bf
       0.24591413 -1.4836137 -1.0485882 -1.3900597
000020 6a 84 8b c0 ee 70 37 bf 51 fb 2e c0 ef d8 b7 be
       -4.359914 -0.7165669 -2.7340891 -0.35907695
000030 a4 e2 44 c0 42 18 a1 c0 68 d4 bb be db 32 6f c0
       -3.076333 -5.034211 -0.3668549 -3.737479
000040 b2 ed 13 c0 af 39 7e c0 6e f2 86 bf 92 30 00 40
       -2.3113828 -3.9722707 -1.0542734 2.0029645
000050 7e 10 05 c0 21 08 f3 bf 8b 4f b3 bf 1a 44 0b c0
       -2.0791316 -1.8986856 -1.400865 -2.1760316
000060 3c 47 e7 bf b2 7e f0 bf f8 48 c2 3d 56 48 25 c0
       -1.8068614 -1.8788664 0.09486574 -2.58254
000070 d9 20 c5 bd 9b 1a c3 bf a6 65 c6 bf 38 9d 0b c0
       -0.09625406 -1.5242494 -1.5499771 -2.1814709
000080 8a f3 34 c0 13 aa ec 3f da 5c 2d c0 12 36 b2 bf
       -2.8273644 1.8489403 -2.7087922 -1.3922751
000090 5f 32 a2 bf 5f 70 b4 bf 26 ea 29 c0 3f 2f 3e bf
       -1.2671622 -1.4096793 -2.6549163 -0.7429084
0000a0 05 dc 36 bf ff e1 1c c0 17 8c 2f c0 03 bf f1 bf
       -0.71429473 -2.4512937 -2.7429254 -1.8886417
0000b0 02 b3 bb bf 37 a4 07 c0 b1 a9 47 bf 1d 2b 14 c0
       -1.4664004 -2.1193979 -0.77993304 -2.3151314
0000c0 7d 94 8b bf c6 da 5e c0 e1 06 23 c0 e0 13 d4 3e
       -1.090469 -3.4821029 -2.5472949 0.41421413
0000d0 fc 0c 40 3f 18 ba 02 c0 a1 85 59 bf 82 99 0a c0
       0.7501981 -2.0426083 -0.84969527 -2.1656194
0000e0 e3 43 92 c0 17 51 92 c0 8b b5 eb bf a5 47 a4 bf
       -4.570787 -4.5723987 -1.8414778 -1.2834364
0000f0 ab e8 82 3f c6 b5 32 c0 93 66 2a c0 13 52 e2 bf
       1.0227255 -2.7923446 -2.6625106 -1.7681297
000100 53 38 00 c0 24 46 25 c0 56 3a 98 c0 41 21 27 c0
       -2.0034378 -2.582406 -4.757121 -2.6114047
000110 d8 53 46 3f 95 40 51 c0 69 0e 2f c0 3e a5 b2 bf
       0.77471685 -3.2695668 -2.7352545 -1.3956678
000120 87 fb 07 c0 c0 8b 49 c0 9e 22 a1 be eb 4e e0 bf
       -2.124727 -3.1491547 -0.31471723 -1.7524084
000130 f5 7b 66 c0 85 9e 65 c0 fe e7 96 bf 93 cd a3 bf
       -3.6013157 -3.5878003 -1.1789548 -1.2797111
000140 33 21 24 3f 77 4f 9f c0 3c 12 bb bf 9d 55 ef bf
       0.6411316 -4.9784503 -1.461494 -1.8698002
000150 53 b2 6a bf a5 4e 98 bd dd 19 e0 bf f2 f8 e8 bf
       -0.9167835 -0.07436875 -1.7507893 -1.8200972
000160 92 16 09 c0 52 23 b0 bf ba 0d ca bd a3 1e 57 bf
       -2.1420026 -1.3760779 -0.098658994 -0.8403112
000170 b2 cf 2e c0 38 ab ab 3f 65 a6 d0 bf f6 f7 d6 bf
       -2.7314267 1.3411627 -1.630078 -1.6794422
000180 41 3a 44 bf 22 30 95 bf 5b bf d6 bf 9a 95 26 c0
       -0.7665139 -1.1655314 -1.6777147 -2.602881
000190 cf c2 a8 bf cc 99 bd bf 53 80 16 c0 5e 1a c3 bf
       -1.3184451 -1.481256 -2.3515823 -1.5242422
0001a0 a2 cc 11 bf cb ed bf bf c0 f5 9b 3f c4 5e 74 3f
       -0.5695287 -1.4994444 1.2184372 0.954571
0001b0 be 9e 1d c0 03 d1 4f c0 bb a4 cb bf 43 48 7f bf
       -2.4628139 -3.247132 -1.5909647 -0.9971964
0001c0 39 4f 95 bf 7d 47 84 c0 96 0a 25 c0 1d db 43 c0
       -1.1664802 -4.1337266 -2.578771 -3.0602486
0001d0 10 ff 34 c0 18 8d 74 bf d0 58 0d bf 9f 76 95 be
       -2.8280678 -0.9552779 -0.5521364 -0.29192063
0001e0 a5 b0 9d bf f1 64 9d bf 21 a8 7f 3f 4a 27 53 c0
       -1.2319533 -1.229643 0.9986592 -3.299273
0001f0 e4 22 fc bf 84 c6 cb be c2 a0 2d c0 4b f3 0d c0
       -1.9698148 -0.39799893 -2.7129369 -2.2179744
000200 cf 0f 3a c0 1c 6c fc 3d 64 a0 5f c0 8d 69 25 c0
       -2.9072149 0.12325308 -3.4941645 -2.5845673
000210 f9 a2 91 bf 7a 5b b1 bf 86 0c 9d bf 6d 7e 2c c0
       -1.137786 -1.3856041 -1.2269447 -2.6952164
000220 fc fc fb bf f0 64 fe bf 8e 7e b8 bf 4d a7 2c be
       -1.968658 -1.9874554 -1.4413621 -0.16860695
000230 9c 82 9d bf 22 98 5e c0 67 00 1d c0 bf 0a 38 c0
       -1.2305484 -3.4780354 -2.4531496 -2.875656
000240 0b 16 83 c0 55 c9 e0 bf b9 19 f2 bf 94 a0 36 c0
       -4.096441 -1.7561442 -1.89141 -2.853551
000250 dc 65 75 c0 90 e9 7a c0 3f 18 87 bf f7 de cd bf
       -3.834342 -3.9205055 -1.0554274 -1.6083668
000260 1b 57 45 3f 3d 46 06 c0 92 47 60 c0 d2 c4 24 c0
       0.7708604 -2.098037 -3.5043683 -2.574513
000270 65 e3 44 bf 19 32 89 c0 e2 95 07 c0 57 db 04 c0
       -0.76909477 -4.2873654 -2.1185231 -2.0758874
000280 27 c4 54 c0 ae 23 2f c0 45 cb 36 c0 10 c4 3b c0
       -3.3244722 -2.7365527 -2.8561566 -2.9338417
000290 db a8 97 bf 3d 11 71 be d2 0e 72 c0 28 2d 2f c0
       -1.1848406 -0.23541732 -3.7821546 -2.737131
0002a0 2e 30 2d c0 87 f0 da bf 4d d9 8c c0 ba c3 02 bf
       -2.7060657 -1.7104653 -4.401526 -0.51079905
0002b0 4e 8e 4c bf 58 70 b4 bf f9 63 2b c0 00 3f 07 c0
       -0.7990464 -1.4096785 -2.6779768 -2.1132202
0002c0 f5 3f cd bf fe 86 7b 3d ae ff a3 3e f7 fe c2 bf
       -1.6035143 0.061408035 0.32031006 -1.5234059
0002d0 43 39 e8 bf ad 06 f5 be 7e 69 3f c0 e6 d0 a1 bf
       -1.8142475 -0.47856656 -2.9908137 -1.2641876
0002e0 a2 19 61 c0 75 57 32 c0 ac 1a da bf f7 79 36 be
       -3.5171895 -2.786588 -1.703939 -0.17819963
0002f0 eb 17 fc bf aa fc 0a c0 1a 69 37 c0 92 32 3e c0
       -1.9694799 -2.1716714 -2.86579 -2.9718366
000300 93 46 83 3f 4a a8 0a c0 97 8d 77 c0 41 4c d4 bf
       1.0255913 -2.1665215 -3.868017 -1.6585771
000310 cd 81 03 c0 b4 ea bf bf 36 3e c9 be 99 69 49 bf
       -2.0547974 -1.4993501 -0.39305276 -0.78676754
000320 1b dd 6a bf 7d d2 02 c0 e3 0f 7e c0 71 40 de bf
       -0.9174363 -2.0440972 -3.9697196 -1.7363416
000330 0c d8 54 c0 da e3 5e bf 08 3c 0f c0 ee 56 d1 bf
       -3.3256865 -0.87066424 -2.238039 -1.6354654
000340 2f 6e e3 bf 58 fc 05 c0 57 bf 2f c0 ea e8 2e c0
       -1.7768 -2.0935268 -2.7460535 -2.732966
000350 8d 85 19 bf 33 df 19 c0 21 02 d8 bf a0 a8 e9 bf
       -0.5996941 -2.404248 -1.687565 -1.8254585
000360 90 88 5e c0 d9 0d dc bf ac 45 09 c0 12 3b 2a bf
       -3.477085 -1.7191726 -2.1448774 -0.66496384
000370 6a da c8 bf 00 45 ab c0 e9 cd 84 bf 03 8d 70 bf
       -1.5691655 -5.352173 -1.0375339 -0.93965167
000380 62 72 b5 bf cb 18 3e be 98 c8 e7 bf 76 e4 f1 bf
       -1.4175532 -0.18564145 -1.8108091 -1.8897846
000390 e2 5c cc 3e 01 0c 62 bf 2b 77 0b c0 78 24 64 bf
       0.39914614 -0.88299567 -2.1791484 -0.89118147
0003a0 7b 6d f8 bf 80 b1 49 3f 91 27 1a c0 ea fa 0b 3e
       -1.9408411 0.7878647 -2.408665 0.13669935
0003b0 a3 1b f3 be 88 d4 3e 3f d9 ff 55 c0 fc 55 40 c0
       -0.47482023 0.74543047 -3.3437407 -3.005248
0003c0 10 29 a1 bf 2b 05 20 c0 02 6c 28 c0 37 74 4c c0
       -1.2590656 -2.5003154 -2.6315923 -3.1945932
0003d0 97 0d 04 c0 77 37 76 c0 71 27 18 c0 1e 0e a8 bf
       -2.0633295 -3.8471353 -2.3774073 -1.3129308
0003e0 67 de 1b c0 2c bf 4d c0 31 86 32 bf 52 3c 6e c0
       -2.4354494 -3.2147932 -0.6973601 -3.7224317
0003f0 fc 72 7b c0 14 c0 cf bf 20 19 e8 bf f7 d1 e9 bf
       -3.928893 -1.6230493 -1.8132668 -1.8267201

fc2.weight f4 [128, 256]
000000 21 86 6f bd d2 1c b3 bb 07 81 64 3c 18 a5 71 bd
       -0.058477525 -0.005466082 0.013946778 -0.058995336
000010 64 5a ef bd 73 ea b7 bc 0c 56 fd ba a5 4a 30 3c
       -0.116871625 -0.022450661 -0.0019328012 0.010759984
000020 1d 62 17 be fc 0d c3 bb 14 37 58 3d f6 95 23 bc
       -0.14783521 -0.005952595 0.0527869 -0.009984484
000030 83 a3 c9 bd a2 97 91 3c df 3c 1a bd e9 b9 58 3d
       -0.098456405 0.0177725 -0.037655707 0.052911673
000040 d1 2d 22 bd 54 3d 6b 3c 3f ea bd bc 74 7b 53 bd
       -0.039594475 0.0143578835 -0.023182986 -0.051631406
000050 43 db a3 3c df 0f 86 bd 8d ae ae bd e2 6b a7 bd
       0.020002013 -0.06545996 -0.08529387 -0.08174874
000060 de 65 97 bd 7d b1 06 3d 9e 62 96 bd 27 63 81 bd
       -0.073924765 0.03288411 -0.073430285 -0.0631774
000070 a4 22 ba bc 8b 2c 95 bd da 24 83 3d 45 d0 1d bd
       -0.022721596 -0.072838865 0.06403513 -0.0385287
000080 20 a3 f2 bd 6a 38 0c bd 22 4e 88 bc f7 86 13 bd
       -0.1184752 -0.03423349 -0.01663882 -0.036017384
000090 96 b8 52 bd 74 8e 12 3d 74 25 02 bd 91 72 20 bd
       -0.051445566 0.035780385 -0.031774 -0.03917176
0000a0 7d 14 98 ba da 52 47 bd 25 19 fc bd 3f 71 9d bd
       -0.0011602786 -0.048662998 -0.123094834 -0.076876156
0000b0 07 86 ad bd ae 30 c4 bd 7f 3d 95 3d d9 72 42 3d
       -0.08472829 -0.095795974 0.0728712 0.04747281
0000c0 52 8f 0c bd 8c 2b 94 bd 3b d3 95 bd af 01 c7 bd
       -0.03431637 -0.072348684 -0.0731568 -0.09717118
0000d0 cc 65 06 be b7 1b 90 bd 79 1d 90 3d e9 0a 80 bc
       -0.1312477 -0.07036536 0.070368715 -0.015630202
0000e0 9f 31 68 3b a7 8b 5c bd e4 d5 a9 3b 7c 24 d5 b9
       0.0035429967 -0.05384412 0.0051829685 -0.0004065371
0000f0 2e 14 bb bd 2b 23 08 be 16 71 ff bc dc a2 1d bb
       -0.09134708 -0.13294666 -0.031181853 -0.002405337
000100 ad dd 84 bd eb 0e d0 bd c4 4c 54 3d c4 d5 fb bc
       -0.06487594 -0.101590954 0.051831022 -0.03074158
000110 ab 28 1d be f3 d4 7d bd 7f 7a 22 bd d5 23 e7 3c
       -0.15347545 -0.061970662 -0.039667603 0.028215328
000120 60 88 06 3b 33 cb 8f 39 6a 48 32 bd ce 15 eb bd
       0.0020528063 0.0002742648 -0.04352609 -0.11478768
000130 fe dd 95 bd 3c e4 8b bd ea ec d0 3c be dd 60 3b
       -0.07317732 -0.068306416 0.025503594 0.0034311856
000140 64 f6 c7 bd 2c eb 52 bd 1f 10 c4 3b 64 54 46 bd
       -0.09763792 -0.05149381 0.005983367 -0.048420325
000150 b4 78 46 bd f8 33 13 bc 7d 5c b8 bd 4e db c9 bc
       -0.048454955 -0.008984558 -0.09002016 -0.024640705
000160 45 be e7 bd 4a e6 83 3c 7e 1c 9d 3c 2b 2c bd 3c
       -0.11315588 0.016101021 0.019178625 0.02309235
000170 72 bf 86 bd 2d cf dd bd e7 50 92 bd e8 3b 47 3d
       -0.06579484 -0.10830531 -0.07144337 0.048641115
000180 af f4 03 be 04 a2 48 bd 77 03 0b 3d 1b dc 18 3d
       -0.12886308 -0.048982635 0.03393885 0.037319284
000190 38 34 b8 3b fd 4f 93 bd 81 44 0d be 3e 31 8b bd
       0.0056214593 -0.07192991 -0.13795663 -0.067965016
0001a0 88 c8 71 bd ed ea 36 bd 09 d2 22 bd 6f d8 f5 bd
       -0.059029132 -0.044657636 -0.039751086 -0.12004172
0001b0 d2 f2 b6 bd 2d 4c 61 bc 7d 10 de bd 6d df e7 3c
       -0.08933033 -0.013751072 -0.10842989 0.02830478
0001c0 18 eb fd bc 26 60 90 bd 37 8b 86 3b 25 0c a2 bd
       -0.03099589 -0.07049589 0.004105951 -0.07912473
0001d0 a0 0e 8c 3d b4 94 11 3d 0d 0a 9b bd 28 02 42 bd
       0.06838727 0.035542205 -0.075702764 -0.047365338
0001e0 0d 0f 0c 3d a7 5f 02 bd 7a f8 d9 bc e0 8c 8e 3c
       0.03419404 -0.031829502 -0.02660774 0.017401159
0001f0 17 9d b9 bc 99 ad b5 bd bd dd 52 3b 05 70 92 bd
       -0.022657914 -0.08871002 0.0032175623 -0.07150272
000200 6c 19 31 bd d2 be b6 bc 5a b4 99 3b cd 6d fd 3c
       -0.043237135 -0.022307787 0.004690689 0.030936146
000210 35 01 e0 bd a2 1f 66 bd b0 7b d7 bd e2 c2 08 bd
       -0.1093773 -0.05618251 -0.105216384 -0.03338898
000220 0f 92 88 3c 6f 52 07 3d 0c 73 7d bc 1c 35 27 bd
       0.016671209 0.0330376 -0.015469324 -0.040822133
000230 df 0f 39 3c 26 89 88 bd f2 39 13 3d 4a e4 4f 3d
       0.011295288 -0.06666784 0.035943933 0.050754823
000240 30 d6 01 bd f1 85 c6 bd 61 74 30 3c ee b1 03 3d
       -0.031698406 -0.09693516 0.010769934 0.03215211
000250 34 68 18 3d 59 41 53 3d 56 4a f0 3c 96 c9 7b bc
       0.03720875 0.051575992 0.029332321 -0.015367886
000260 b8 bf 09 3c 88 93 1b bd ae af 7d bd 78 31 8c bd
       0.008407526 -0.037982494 -0.06193512 -0.06845373
000270 74 c8 1e 3d e7 61 fe bd 4a c1 8f bd e4 be 11 bb
       0.038765386 -0.12421017 -0.07019289 -0.0022239024
000280 7b b0 29 3c b8 98 c9 3c 2a 6a b6 3d b7 1b 77 bd
       0.010357018 0.024608955 0.08906968 -0.060329165
000290 49 8b c5 3c 86 f7 11 bd f6 4d 03 bd e3 3a 20 bc
       0.024114268 -0.035636447 -0.03205677 -0.009779665
0002a0 e4 0b 22 3b ea 7d 1c ba 0d 94 0c bd ec d7 d4 3c
       0.0024726326 -0.00059696904 -0.03432088 0.025981866
0002b0 f5 74 42 bc 9a 80 d4 3c e0 5a 94 bd 2f 4e ea b9
       -0.011868705 0.025940228 -0.072438955 -0.0004469021
0002c0 bc 0f 5c bd 75 59 c2 bd 3c b4 22 3c b4 f5 1a bd
       -0.053725943 -0.09489719 0.009930667 -0.037831977
0002d0 f3 b6 84 3d 8a 65 8a bc ca 18 1d bd 9b c5 ac bc
       0.06480207 -0.01689412 -0.03835372 -0.02109032
0002e0 bd 0e 84 bd 5b 57 cf 3c 13 6b 63 bd b4 3f 8a bd
       -0.064481236 0.025310209 -0.055522036 -0.06750432
0002f0 5b 87 c0 3c 17 25 28 3d 0d c1 9c bd ed 99 68 3d
       0.023502043 0.041050997 -0.07654009 0.05678742
000300 10 11 41 bd e2 3f 6e bb 27 36 c2 bd f9 b2 e1 bd
       -0.047135413 -0.0036353995 -0.09482985 -0.110204645
000310 01 22 01 be 23 b1 10 be 35 b3 97 bc f9 79 90 bd
       -0.12610628 -0.14130072 -0.01851807 -0.070545144
000320 d8 60 83 3c d3 1f 01 bd e4 db 69 bd a1 c7 54 bd
       0.01603739 -0.03152449 -0.05709447 -0.051948193
000330 8a 9c 5c bd 1a 42 e1 3c a8 36 84 bd 7a 6b 1a be
       -0.053860225 0.02749734 -0.06455737 -0.15080062
000340 0f 18 e3 3c 37 98 43 3d a5 8b b5 bd ab 58 99 bd
       0.027721433 0.047752585 -0.08864526 -0.07487615
000350 45 48 80 bd 3c 1b 20 bd bd 13 fd bd fa 86 14 bd
       -0.06263784 -0.039088473 -0.123572804 -0.036261536
000360 d0 8a d6 bd c9 5a 90 bd 20 ad 39 3c 53 37 cf 3b
       -0.10475695 -0.07048566 0.01133278 0.006323734
000370 c3 30 97 bd b7 dd 64 3d 72 3c 38 3d f3 7c 92 bd
       -0.073823474 0.055875506 0.04497952 -0.071527384
000380 77 d7 ed bd ee 10 9d bd 8c f3 a2 bc c1 94 53 3d
       -0.11613362 -0.07669245 -0.019891523 0.051655535
000390 2d a9 9d bd 3a 62 23 bd 11 93 54 bd a2 f0 f7 bd
       -0.07698283 -0.039888598 -0.051898066 -0.12106444
0003a0 5b 06 4d bc 20 19 97 3b 3c 6e f6 bd b2 3b 3f 3d
       -0.012513722 0.0046111494 -0.12032744 0.04668779
0003b0 f1 42 f7 bc ad 19 34 bc 4b 41 82 3d d9 d2 38 3d
       -0.030183287 -0.01099245 0.0636011 0.045122955
0003c0 73 06 af bc 06 8f 66 bd b2 7f 80 bd 5c 26 55 bd
       -0.02136538 -0.05628874 -0.06274356 -0.052038535
0003d0 0b 45 47 bd 3f 83 c1 bd 9d 09 7e 3d 4e 4e fe bd
       -0.04864983 -0.09448861 0.062020887 -0.12417279
0003e0 31 72 ff 3c 73 5c a8 3a 64 44 34 3d ca b4 81 3d
       0.03118238 0.0012844935 0.044010535 0.06333311
0003f0 d2 36 a4 bd 05 bf bf bd 4b 5f f5 bb c8 cb 29 bc
       -0.08018269 -0.09362606 -0.0074881664 -0.010363527

fc2.bias f4 [128]
000000 67 72 ad bc bd ed 80 3f 74 72 10 bd d1 48 86 3b
       -0.021172715 1.0072552 -0.0352654 0.004098036
000010 c5 74 22 40 e2 94 6f bd 24 3e 8f 3d c0 f1 83 3f
       2.538377 -0.058491595 0.06994274 1.0308151
000020 63 1b 02 be c7 4c 5d bd 82 8b 35 bd f5 0c 76 3f
       -0.1270576 -0.0540283 -0.0443225 0.9611352
000030 41 31 42 3f d1 06 15 be f5 77 e5 be b4 4d 24 bf
       0.75856405 -0.14553382 -0.44818082 -0.64181066
000040 07 b0 ba bd 98 65 49 bf e0 6f 0e 3d 26 53 69 bb
       -0.09115606 -0.78670645 0.03477466 -0.003560254
000050 57 ec 2c 3c 98 6a 8b bd 4c 4b 00 3f 91 bb ac 3e
       0.010554395 -0.068074405 0.50114894 0.33736852
000060 a2 28 06 bc df 0d 62 40 80 71 06 3f b1 e7 41 3e
       -0.008188399 3.5320966 0.5251694 0.1893604
000070 6e 89 42 40 9c 8d 06 40 dd 0c e2 bf 7e a5 54 3b
       3.039638 2.1023932 -1.7660176 0.0032447274
000080 c8 b2 58 40 3c 1a e4 bc 96 7a cb 3f 19 3c ae be
       3.385912 -0.02784454 1.5896785 -0.34030226
000090 7a e4 9b 3f bd 7f b2 3f d2 8a 60 3f e7 c2 c4 bd
       1.21791 1.3945233 0.87711823 -0.09607487
0000a0 2b 6c 57 3d 35 0a c4 bd 1c 9c bd 3f 1a 9d 05 bd
       0.05259339 -0.09572259 1.4813266 -0.032620527
0000b0 d7 29 dd bd 2c c6 f7 bb dc 45 dc 3f 2e f6 a5 40
       -0.10798996 -0.0075614657 1.7208819 5.186301
0000c0 a7 0b a4 bd 35 67 07 3f 30 d5 90 3e 09 c6 14 3c
       -0.08010035 0.52891856 0.2828765 0.009080418
0000d0 f3 21 f6 3f be 93 26 3f 46 33 ab bd 40 f3 a4 3e
       1.922911 0.65069187 -0.08359389 0.32216835
0000e0 24 5e 08 3f e2 c9 4a be 54 10 b7 3a 3b 0b b7 3f
       0.5326865 -0.19803575 0.0013966658 1.4300302
0000f0 fa cb a8 3f dd a5 a2 bd 35 f4 66 bc 5f 72 32 3d
       1.3187249 -0.07941792 -0.014096309 0.043566104
000100 61 07 b4 bd e2 e8 2d bc 6b 29 68 bd ab c0 0d 3f
       -0.0879047 -0.010614606 -0.056680124 0.55372113
000110 53 12 64 3f 18 e3 25 3e b3 22 c5 3e 12 87 52 be
       0.8909046 0.1619991 0.38503036 -0.20559338
000120 48 26 54 be c2 f1 e4 3f f6 06 19 3f 16 9a 42 3d
       -0.20717728 1.7886279 0.59776247 0.04751023
000130 a6 8a f7 bc b0 3d 3e bd ec 78 e5 bf fb 0c 00 3f
       -0.03021748 -0.04644555 -1.7927527 0.50019807
000140 f0 bd 09 3e 9f 64 54 bd a1 76 8e 3c bd 38 a9 3f
       0.13451362 -0.051853772 0.017390551 1.322044
000150 43 99 74 be 7c 88 09 3b 59 6e b9 bd e7 42 99 bd
       -0.2388659 0.0020985892 -0.0905425 -0.07483464
000160 52 6f 44 be 05 7d 92 bc 5b ff 83 3f a9 ad c2 bf
       -0.1918309 -0.01788188 1.0312303 -1.5209247
000170 9e 0b c0 be c3 c1 7b 3d be 37 ab bd 59 48 26 be
       -0.37508863 0.061464082 -0.08360241 -0.16238536
000180 91 c6 33 bf 81 6c cc bb d9 31 72 be 41 a5 c3 bc
       -0.70224863 -0.0062385206 -0.23651828 -0.02388251
000190 47 ad b4 3f bd fc f2 bd c6 c8 4a bd 31 3a 51 bd
       1.411538 -0.11864612 -0.04950788 -0.051080886
0001a0 0e 03 ad 40 f7 d6 83 be ac 33 ee bd 6f 41 aa bb
       5.406623 -0.25749943 -0.116309494 -0.0051957886
0001b0 0a 31 83 bc 71 a7 64 bf ac f6 ab 3f a9 36 c3 3f
       -0.016014595 -0.89317995 1.3434653 1.5251056
0001c0 48 6a a3 bd 13 74 01 bd a6 81 0c 40 4b 17 54 3e
       -0.07979256 -0.031604838 2.195413 0.2071201
0001d0 2e e0 a5 3f b6 0e e5 bd fa 9b eb 3f d6 d3 12 40
       1.2959039 -0.111844465 1.8406975 2.2941794
0001e0 df bd 09 40 54 90 82 bd 4c a5 0b 40 7d a1 e0 3f
       2.1522138 -0.06375185 2.181964 1.7549282
0001f0 0e 54 81 bc 71 9f 27 be 75 3e 83 3f 51 f4 c1 bc
       -0.01578715 -0.16369416 1.0253435 -0.02367607

fc3.weight f4 [2, 128]
000000 09 df 5f bd b2 82 b4 3f eb 8a bb 3d 6b 6b 72 bd
       -0.054656062 1.4102385 0.09157356 -0.059184473
000010 df e3 4a 40 03 62 b5 bd 76 f0 73 bd db 99 4b c0
       3.1701581 -0.08856585 -0.059555493 -3.1812656
000020 ae 3e e0 bc 45 77 60 bc 55 ba 1a 3d 1d fd e2 bf
       -0.027373638 -0.013700311 0.037775356 -1.7733494
000030 53 fa 31 c0 65 e9 20 3e 5c ce 65 bf be b6 27 41
       -2.7809036 0.15714033 -0.89768004 10.482115
000040 33 4a 54 bd 49 30 6b bf 25 08 97 40 72 37 ce bd
       -0.051828574 -0.9187055 4.719744 -0.10069169
000050 ca 33 7c bd 43 bd 69 bd a9 06 ad bf 20 44 1d c0
       -0.061572827 -0.05706526 -1.3517658 -2.457283
000060 95 47 50 3e d4 31 dc 3f 6f 91 a3 bf ee 9c 04 c0
       0.20339806 1.7202706 -1.2778758 -2.0720782
000070 1b d9 0e c0 48 0d 0e c0 48 42 95 3f bd e9 6f bd
       -2.232001 -2.2195606 1.1660852 -0.05857252
000080 eb 7a 0e c0 b2 0f d8 bc d3 3d 3b c0 68 ca 2e c0
       -2.2262523 -0.026374672 -2.9256485 -2.731104
000090 f0 4a 28 bf 09 46 2d c0 83 db 98 bf e7 23 54 bd
       -0.65739346 -2.7073996 -1.194199 -0.05179205
0000a0 57 e4 85 bd 00 ce 77 bd ea 5a 49 40 2e 8f 64 bd
       -0.06537693 -0.06049919 3.146174 -0.05580061
0000b0 7a e2 64 bd a4 0e 6d bd 23 84 47 40 a8 73 91 3f
       -0.055880047 -0.05787529 3.11744 1.136342
0000c0 38 d2 3c 3e 70 26 0c c0 ae 9b 3d be 07 a7 65 bd
       0.18439567 -2.189846 -0.18516418 -0.056067493
0000d0 25 12 c8 be ee 1a 03 40 8b 34 66 bd f4 73 2b 40
       -0.39076343 2.0485187 -0.056202453 2.6789522
0000e0 61 ce 05 40 47 85 4e 3e c8 2d 77 bd fb da f9 bf
       2.0907214 0.20168029 -0.060346395 -1.9519953
0000f0 60 4a 14 40 40 94 84 bd 07 c4 66 bd c4 dc 49 bd
       2.3170395 -0.06473589 -0.05633929 -0.049282804
000100 6c 43 0e 3e c0 01 4a bd 2e 2e 6d bd 70 a8 b1 bf
       0.13892907 -0.049318075 -0.05790537 -1.3879528
000110 d4 0e a3 c0 d3 54 88 c0 79 5a ca 3e b4 ae 8e 3d
       -5.09556 -4.2603545 0.3952215 0.06966916
000120 6d a6 0c 3e 71 7d 47 c0 69 f8 8c 40 c4 43 7b bf
       0.13735361 -3.1170313 4.4053235 -0.9815028
000130 be 23 74 bd 04 76 29 bd c3 e1 a4 bf ea f6 62 40
       -0.0596044 -0.041372314 -1.2881397 3.5463204
000140 2e 36 03 40 d7 cb 71 bd cd 17 84 bd b7 56 86 bf
       2.0501819 -0.059032287 -0.06449852 -1.0495213
000150 9e 33 92 3e e4 24 6b bd c1 2d c5 bf 7e 6e bc bd
       0.28555006 -0.05740823 -1.5404588 -0.09200762
000160 1f 05 74 3e 82 4f 81 bd e8 ac ba bf 02 58 94 3f
       0.23830079 -0.06313993 -1.4584017 1.1589358
000170 23 bb 23 3f 0f 26 8f bd ac 75 6e bd 44 80 61 3f
       0.6395742 -0.06989681 -0.05821769 0.8808634
000180 4d e9 87 bf e9 f0 72 bd 92 51 fa 3d 2c a9 6a bd
       -1.0618073 -0.05931178 0.122225896 -0.05729024
000190 0c d9 14 c0 27 f6 0a 40 d9 fd 78 c0 10 7c f2 3c
       -2.3257475 2.171274 -3.8904936 0.029600173
0001a0 f9 97 91 3f 05 f3 6a 3e 0a 1d ff bd 14 60 72 bd
       1.1374503 0.22944267 -0.12456711 -0.05917366
0001b0 c8 74 45 bd 75 ee 8e 40 b9 5e 62 40 3c 35 59 bf
       -0.048207074 4.4666085 3.5370314 -0.84846854
0001c0 63 3f 73 bd 18 ba 8f c0 0f b6 45 40 0b eb 71 bf
       -0.059386622 -4.4914665 3.089237 -0.9449927
0001d0 7f 1d 66 40 b6 07 cc bf 45 cf b2 bf ee aa 0f 40
       3.5955503 -1.5939853 -1.3969504 2.2448077
0001e0 29 27 1c c0 09 78 13 bc e2 40 b0 3f 31 99 83 3f
       -2.4398901 -0.009000787 1.3769801 1.0281125
0001f0 fc 09 8a bd 93 08 a8 bc 2c 2a 06 c0 c1 65 74 bd
       -0.067401856 -0.020511901 -2.096324 -0.059667353
000200 1b 1c 76 3d c9 8b 9a be 66 64 68 bd 5b 06 69 3d
       0.060085397 -0.30184773 -0.056736372 0.056890827
000210 1d ca 07 3f 43 26 58 3d a1 94 26 3d 31 b0 f0 bd
       0.53042775 0.052770864 0.040669087 -0.11752356
000220 89 1b 13 3d 78 54 56 bc 52 1a 15 3e 33 bf a0 3e
       0.03591493 -0.013081662 0.14560822 0.31395873
000230 f3 e4 1e bf 06 3c 67 bc 5a cd a7 3f 74 5b bf 3e
       -0.620681 -0.014113432 1.3109543 0.3737446
000240 4f 7b 62 3d 6a 74 9d 3d 53 95 53 3e 15 7d 85 3c
       0.055293377 0.0768822 0.20662431 0.016294995
000250 51 b3 5a 3d ec fb 6b 3d c9 bb 84 3e 70 16 92 bf
       0.053393666 0.0576133 0.2592452 -1.1413097
000260 de 0f ac be 17 f6 be be 6b 4f 74 bd ec 5c 9d 3f
       -0.33605856 -0.37297127 -0.05964605 1.2293983
000270 d6 ea af 3d e8 83 01 bf 95 81 87 be d8 17 6e 3d
       0.08589713 -0.505919 -0.2646605 0.058128208
000280 68 9d 5e bf 99 e8 5d 3c 6d 3a 01 3f b9 9e 0b c0
       -0.8695893 0.013544225 0.50479776 -2.1815627
000290 84 f5 c5 3e 6c 36 de 3f 6e d8 ed be 2d 2a 84 3d
       0.38663876 1.7360358 -0.46454185 0.06453357
0002a0 bb ec 1b 3d 26 fa 4f 3d 0d 1d 19 bf 2b 52 70 3d
       0.03806756 0.05077567 -0.5980995 0.05867211
0002b0 86 9a 68 3d 6b ee 71 3d 5c bb 14 bf 06 83 f3 3d
       0.05678799 0.059065264 -0.5809839 0.11890225
0002c0 f2 9a 2f bd 0f d1 02 3e 62 64 3e bf 8e c6 78 3d
       -0.042872377 0.12775062 -0.7437192 0.06073623
0002d0 f6 c9 97 3d 4c 3f f5 be e3 89 7c 3d 7b f3 b8 3e
       0.07411568 -0.47899854 0.061654937 0.3612326
0002e0 57 c7 0c 3d 10 c6 3d 3d bb 07 f4 3c 90 36 fa bd
       0.034369793 0.046331465 0.029788842 -0.12217438
0002f0 ad 71 18 3d 45 ce f3 3c fc ac 65 3d dc 6b 35 3d
       0.037217785 0.029761443 0.056073174 0.044292316
000300 58 d4 97 3d 12 29 64 3d e4 5c 6f 3d 11 28 51 3e
       0.07413548 0.05570323 0.058438197 0.2042544
000310 33 af 51 bf d4 9c b7 3f b7 45 3c 40 7a 0c c6 3d
       -0.8190796 1.4344735 2.941755 0.096703485
000320 4b 8d 4b bd e2 f6 39 be 0f cc bf 3f da bc a0 c0
       -0.049695294 -0.18160585 1.4984149 -5.023053
000330 2f 5d 6d 3d 32 9d 00 3c 9a 74 db be 66 34 f7 3f
       0.057950195 0.007849978 -0.42862397 1.9312866
000340 41 9c a8 3e f9 5a 69 3d 8b 2e 53 3d 8e 1b e4 c0
       0.32931712 0.056971524 0.05155806 -7.1283636
000350 d1 a7 6c bd b5 ec 63 3d 97 6b 1b c0 0e 03 7d 3c
       -0.05777723 0.055645663 -2.4284418 0.015442623
000360 6e 0a b5 3d 6c 1a 50 3d 1c 66 dd bd 10 6c d6 be
       0.0883988 0.050806448 -0.108104914 -0.4187932
000370 d1 f3 c3 3d 10 67 01 3d 51 1a 6a 3d 87 b9 e7 3f
       0.09567989 0.03159243 0.057154004 1.8103493
000380 63 a9 2d be 0b 1c 6f 3d 16 a2 96 bd 73 7d 69 3d
       -0.16959147 0.058376353 -0.07355134 0.057004403
000390 b0 62 6b be 3a 4e 02 c0 ae 6a 9f bd 9c 12 d8 3c
       -0.22986865 -2.0360246 -0.077840194 0.026376061
0003a0 bd 16 ac 3d 35 74 14 bd 63 68 bb bd 9d fb 6b 3d
       0.084027745 -0.036243636 -0.091507696 0.057613004
0003b0 96 c7 97 3e 8a 0b 8c 3f 22 2b 07 3e 34 dc f4 bd
       0.2964446 1.0941021 0.13200048 -0.11956063
0003c0 6b c4 6e 3d 83 b4 0b bd e7 42 27 bf 96 cb 2b 40
       0.058292788 -0.034107696 -0.6533646 2.684301
0003d0 f8 61 91 bf 23 0e f7 bd d3 66 34 bc 46 c3 aa be
       -1.1358023 -0.12063243 -0.011010843 -0.33352107
0003e0 3f d0 7b be c7 e9 b2 3d d2 58 49 3f 6b 5b de be
       -0.24591158 0.08735996 0.78651154 -0.4342912
0003f0 65 31 0a 3d f2 d5 78 be 60 72 2f 3f c4 e3 6f 3d
       0.033738513 -0.24300364 0.685339 0.058566824

fc3.bias f4 [2]
000000 fe 2f 06 41 c9 53 0b 40
       8.386717 2.1769888
