checkpoint_actor0.pth (torch_old, 159146 bytes, 6 tensors)

fc1.weight f4 [256, 24]
0	0x405da562	3.4632192
1	0x40f9eda5	7.8102593
2	0xbf0e28e6	-0.55531156
3	0x3fa671e2	1.3003504
4	0xc0250238	-2.5782604
5	0xbfdbe503	-1.7179264
6	0xbf16dd98	-0.58931875
7	0x3fa8ead8	1.3196669
8	0x4066cb45	3.6061566
9	0x40f76314	7.7308445
10	0x3eb8d02e	0.36096328
11	0xbfa086c7	-1.2541131
12	0xc0493247	-3.1436937
13	0xbf805297	-1.0025204
14	0x3e892fbc	0.2679423
15	0xbfa67d09	-1.3006908
16	0x40ca20a5	6.316485
17	0x40eb0baf	7.345176
18	0x3f07e327	0.5308098
19	0xbfc5812e	-1.5430048
20	0xc05f942a	-3.4934182
21	0xbec73046	-0.38904017
22	0x3f10dc00	0.56585693
23	0xbfcced0a	-1.6009839
24	0x3feb2f7e	1.8373868
25	0x3f2f38a2	0.6844579
26	0xbdd9036b	-0.10596355
27	0x3d98ae13	0.07455077
28	0x3ec51fc3	0.38500795
29	0xbf922e9e	-1.1420476
30	0xbe271b42	-0.16318992
31	0x3d56dd22	0.052456982
32	0x3f9f47d4	1.2443795
33	0x3f86395e	1.0486257
34	0xbd87d6f9	-0.066328
35	0x3e891db5	0.26780477
36	0x3e148e76	0.1450747
37	0xbfcc59b8	-1.596488
38	0xbe22fa94	-0.159159
39	0x3e9eec55	0.31039682
40	0x3fa39c71	1.2782117
41	0x3f7b0c10	0.9806528
42	0xbcf364cb	-0.029711148
43	0x3e64ee43	0.22356515
44	0xbed1c724	-0.40972245
45	0xbfb3fa06	-1.4060676
46	0xbd3f7985	-0.04674675
47	0x3e6f166a	0.23348394
48	0x40004c41	2.0046542
49	0x4007529e	2.1144176
50	0xbe40e101	-0.18835832
51	0x3fbad44f	1.4596041
52	0xc0123ba4	-2.2848902
53	0xc03fc5af	-2.9964406
54	0xbe25defb	-0.16198342
55	0x3fc627e3	1.5480922
56	0x4011a224	2.2755213
57	0x402aeed1	2.6708262
58	0x3ddf776b	0.10911449
59	0x3ed94dfe	0.42442316
60	0xc0652846	-3.580583
61	0xc088ef43	-4.2792068
62	0x3dcb9f25	0.09942464
63	0x3ee08022	0.43847758
64	0x401eb254	2.4796343
65	0x40066a30	2.1002312
66	0x3e1c7f29	0.15282883
67	0xc01856cf	-2.3802984
68	0xc0a45535	-5.1354012
69	0xc0a5398f	-5.163276
70	0x3e4f54c5	0.20247181
71	0xc01472a3	-2.3194969
72	0x401c7c45	2.4450848
73	0xc03a920a	-2.9151635
74	0x3e8f6fc2	0.28014952
75	0xbf233dd6	-0.6376623
76	0x40b74ff4	5.72851
77	0x3f979007	1.1840829
78	0x3e471e43	0.19445138
79	0xbf139a9e	-0.576578
80	0x402df527	2.718088
81	0xc06240e7	-3.5352113
82	0x3d070b23	0.032969605
83	0xbf7de226	-0.991732
84	0x40c913f5	6.283686
85	0x3fcbc4d1	1.5919439
86	0x3d5fca59	0.054636333
87	0xbf849dad	-1.0360619
88	0x3ff72f00	1.9311218
89	0xc0957090	-4.6699905
90	0x3ffe5ef7	1.9872731
91	0xbfaf1e5d	-1.3681141
92	0x40ece264	7.4026356
93	0x3ef8a588	0.4856379
94	0x3ffa0f81	1.9535981
95	0xbfbaa967	-1.4582947
96	0x408ba7eb	4.364248
97	0xbe9b6f92	-0.3035856
98	0xbf8caf76	-1.0991046
99	0xc08da731	-4.426659
100	0x3dff7a80	0.12474537
101	0xc08359ee	-4.1047277
102	0xbf86ef60	-1.0541801
103	0xc08c536f	-4.385185
104	0x4082fcb1	4.093346
105	0xbf199314	-0.5999005
106	0x3e3764aa	0.17909494
107	0xbf58731c	-0.8455064
108	0xbea396dd	-0.31951037
109	0xc00bfc77	-2.1872842
110	0x3e1cfbbe	0.15330407
111	0xbf5a194a	-0.8519484
112	0x4081a7b6	4.0517225
113	0xc001aa91	-2.0260355
114	0x3e9d6a0c	0.3074497
115	0xc088fc4e	-4.280799
116	0xbf303500	-0.6883087
117	0xbdfaaaad	-0.12239585
118	0x3eaa2a26	0.33235282
119	0xc0861684	-4.1902485
120	0x3fcf3796	1.6188838
121	0x3fc8f37e	1.5699308
122	0xbf5f34be	-0.87189853
123	0x401c1758	2.4389248
124	0x3f29d18c	0.6633537
125	0x3e753bff	0.23948668
126	0xbf6e78fe	-0.9315337
127	0x401ee774	2.4828768
128	0x4008be70	2.1366234
129	0x40114e0c	2.2703886
130	0x3f66de2a	0.90182745
131	0x3ee6a5b1	0.45048288
132	0x3e01c071	0.12671067
133	0xbe9d9ad6	-0.30782193
134	0x3f50bc46	0.8153728
135	0x3ec28695	0.37993303
136	0x3ff51c30	1.9149227
137	0x40331c19	2.79859
138	0xbf7dc7fd	-0.9913328
139	0x3fa65606	1.2995002
140	0xbf00cb2a	-0.50310004
141	0xbeb8d32d	-0.36098614
142	0xbf867751	-1.0505162
143	0x3fa5263e	1.2902296
144	0x3f42a167	0.7602753
145	0x3f055d32	0.5209533
146	0x3ee24739	0.44194964
147	0xc035f7dc	-2.8432531
148	0xbe73a1ef	-0.23792242
149	0xc0838566	-4.110034
150	0x3edab15f	0.42713448
151	0xc037c28c	-2.8712492
152	0x3f4a5dc7	0.7904934
153	0x3fcc6c6e	1.597059
154	0xbf6223ed	-0.8833607
155	0x3f9c1080	1.2192535
156	0x3e685bcb	0.22691266
157	0xc0d197fb	-6.5498023
158	0xbf5fc8ed	-0.87415963
159	0x3fa217fa	1.2663567
160	0x3fc0a0c7	1.5049065
161	0x405a1007	3.4072282
162	0x3f3d57cf	0.7396211
163	0x402e70f3	2.7256439
164	0x3ed7ea60	0.42171
165	0xc107a74c	-8.478344
166	0x3f4b3857	0.7938284
167	0x402adbb5	2.6696599
168	0x400d4f45	2.2079632
169	0xc0cda055	-6.425822
170	0x3faace2e	1.3344171
171	0x40046089	2.068392
172	0xbf83954a	-1.0279934
173	0xc10136e1	-8.075898
174	0x3fa43de8	1.2831392
175	0x4000214f	2.002033
176	0x3ff0d9db	1.8816484
177	0xc0cc1967	-6.378101
178	0xbe326588	-0.17421544
179	0xbea264ee	-0.31717628
180	0xbf8eacac	-1.1146445
181	0xc10e39c2	-8.889101
182	0xbe3340db	-0.17505209
183	0xbe919a15	-0.28437868
184	0x3fad73fa	1.3551018
185	0xc0c55855	-6.1670327
186	0xbd6e74f4	-0.058217004
187	0x3f706987	0.9391102
188	0xbf723fb5	-0.9462846
189	0xc0c7d937	-6.2452655
190	0xbe0f2969	-0.1398064
191	0x3f7a9f53	0.9789936
192	0x409203f9	4.562985
193	0x40a85fc8	5.261692
194	0xbd83ca9d	-0.0643513
195	0x3f83bc03	1.0291752
196	0xbf3c940d	-0.7366341
197	0xc02e1bc0	-2.7204437
198	0xbc2a4748	-0.010392971
199	0x3f849153	1.035685
200	0x405bbe0a	3.433474
201	0x40896ec5	4.2947717
202	0xbe96dbde	-0.2946462
203	0xbf374bee	-0.71600235
204	0xc0044b7f	-2.067108
205	0xc02d3c89	-2.7068198
206	0xbe4bb015	-0.19891389
207	0xbf4e1b06	-0.80509984
208	0x4001382d	2.0190537
209	0x3e79a80a	0.24380508
210	0xbe215a5c	-0.15757126
211	0xbe57eeaa	-0.21087137
212	0xc0a96dbb	-5.294645
213	0x3eb08fe8	0.34484792
214	0xbe1b7de8	-0.15184748
215	0xbe497c5e	-0.19676349
216	0x3ff27442	1.8941729
217	0x40188b64	2.3835077
218	0xbe1093ee	-0.1411893
219	0xbfa52eab	-1.2904867
220	0xbea99400	-0.33120728
221	0xc0af4c3e	-5.478057
222	0xbdf0e160	-0.11761737
223	0xbfaa653b	-1.3312143
224	0x3fc1a611	1.5128804
225	0x402a450a	2.6604638
226	0x3d9625f5	0.073314585
227	0xbde6b37e	-0.11264704
228	0xbed3dfee	-0.41381782
229	0xc11b0a40	-9.690002
230	0x3d5b66e8	0.053564936
231	0xbd434a63	-0.047678363
232	0x400876da	2.1322541
233	0x3fe76076	1.8076313
234	0x3fb0d488	1.3814859
235	0xbfc191ea	-1.5122654
236	0xbf0740a0	-0.52832985
237	0xc134e504	-11.305912
238	0x3fb473c0	1.4097824
239	0xbfc4a184	-1.5361791
240	0x4087937d	4.236754
241	0x3fceae4c	1.6146941
242	0xbf3fb192	-0.74880326
243	0xc005a523	-2.0882041
244	0x3f3d46a2	0.739359
245	0x4030632b	2.7560527
246	0xbf4f095e	-0.8087367
247	0xc001ae57	-2.0262659
248	0x408d4225	4.4143243
249	0x3f0b5253	0.5442249
250	0xbdec0375	-0.11524097
251	0xc07377e8	-3.8041935
252	0x3ffba9a0	1.966114
253	0x404263d1	3.0373423
254	0xbe28a7c8	-0.16470253
255	0xc079675c	-3.8969336

fc1.bias f4 [256]
0	0xc027e5e9	-2.6234076
1	0xbf9ed7fb	-1.2409662
2	0xc03aeacc	-2.9205809
3	0xbf2cc327	-0.6748528
4	0xbf93afa9	-1.1537982
5	0xc04bee4a	-3.186419
6	0xc0438f65	-3.055627
7	0xbfeda30c	-1.8565383
8	0xc006b3c0	-2.104721
9	0xbfd2dfa1	-1.6474496
10	0xc05991e3	-3.3995292
11	0xc01dafac	-2.4638472
12	0xbfd21e1a	-1.6415436
13	0xbf5b998b	-0.8578116
14	0xbfdf1404	-1.7427983
15	0xbf720672	-0.94541085
16	0xc034d1fe	-2.825317
17	0xc03a91a5	-2.9151394
18	0xbf056a1f	-0.5211505
19	0xbf95f293	-1.1714653
20	0xbfbe675b	-1.4875292
21	0xbdab7a03	-0.08372881
22	0xbf8edd91	-1.1161367
23	0xbfc02346	-1.5010765
24	0xbf9149e6	-1.1350677
25	0x3f66e165	0.90187675
26	0xbe9465b8	-0.28983855
27	0xbf97b52f	-1.1852168
28	0xc009b293	-2.1515243
29	0xc036f40e	-2.858646
30	0xc050aadf	-3.2604291
31	0xc023c548	-2.558916
32	0xbf73ebe6	-0.9528183
33	0xc014b0fe	-2.3233027
34	0xbf90508d	-1.1274582
35	0xc0420583	-3.0315864
36	0xbf92d83f	-1.1472243
37	0xbfbbfb70	-1.4686108
38	0xbfeac678	-1.8341818
39	0xc04517a4	-3.079568
40	0x3f439978	0.7640605
41	0xc05c6180	-3.443451
42	0xbf63c6d0	-0.8897524
43	0xbfc9cfd6	-1.5766551
44	0xc0315ad2	-2.7711682
45	0x3f02c39e	0.5107974
46	0xc0156de3	-2.334832
47	0xc0468fd9	-3.1025298
48	0xc02ef7fe	-2.7338862
49	0xbf011014	-0.5041516
50	0xc04ca2d8	-3.1974392
51	0xbf5c6996	-0.8609861
52	0x3fadc9d9	1.3577224
53	0xc0014fad	-2.020488
54	0xbed6a321	-0.41921332
55	0xc04ed16e	-3.2315326
56	0x3c3cf4e0	0.011532992
57	0xc008d226	-2.1378264
58	0xc00eeb0c	-2.2330961
59	0xc05716a4	-3.3607569
60	0xbf2ed3b9	-0.68291813
61	0xbfb9c7f4	-1.4514146
62	0xc098b67a	-4.772275
63	0xbf9efe9f	-1.2421454
64	0xc011c05a	-2.2773652
65	0xc084fb39	-4.155667
66	0xc02919c6	-2.642198
67	0xbfe3ffcb	-1.7812437
68	0xc012a0c1	-2.2910616
69	0xbfcf36b5	-1.618857
70	0xc0147f7c	-2.320281
71	0xbd9df2f0	-0.07712352
72	0xc0222f3a	-2.5341325
73	0xc0346689	-2.8187582
74	0xc045d997	-3.0914056
75	0xbfe5cf41	-1.7953874
76	0xbf09e4bf	-0.53864664
77	0xbfd1bf0b	-1.6386427
78	0xc034cbaa	-2.8249307
79	0xbf2c42e6	-0.6728958
80	0xbfbbb99c	-1.4666018
81	0xbfc9c139	-1.5762092
82	0xc035560f	-2.8333776
83	0x3fcbae57	1.5912579
84	0xc03151cf	-2.7706182
85	0xc009b761	-2.1518176
86	0xbf1b2c6d	-0.60614663
87	0xc0328f7e	-2.790008
88	0xc01a4d3c	-2.410964
89	0xc0015530	-2.0208244
90	0xbf0c901c	-0.54907393
91	0xbfb2152a	-1.3912709
92	0xc002b6ab	-2.0423992
93	0xbf2ef7d9	-0.68346936
94	0xc0185fa8	-2.3808384
95	0xc044fabb	-3.0778034
96	0xc036fa4f	-2.8590276
97	0x3efd2a56	0.49446362
98	0xbeac5bd3	-0.33663806
99	0x4000e64d	2.0140564
100	0xbfdcdf78	-1.7255697
101	0xc03e095a	-2.9693208
102	0xbed9e4fe	-0.4255752
103	0xbfc19077	-1.5122212
104	0xc05e7398	-3.4758053
105	0xc04d808d	-3.210971
106	0xc031487c	-2.770049
107	0x3d46cf72	0.04853768
108	0xbfbef92e	-1.4919794
109	0xc088eeed	-4.2791657
110	0xbffd0ca1	-1.9769479
111	0xbebabc9e	-0.36472028
112	0xc02b7abe	-2.6793666
113	0xbfdbf6dd	-1.7184712
114	0x3ec7891c	0.38971794
115	0xbfcaf8aa	-1.5857136
116	0xc06e5dd4	-3.7244768
117	0xbfcf8fcd	-1.621576
118	0xc01c4dc2	-2.442246
119	0xc099a0c6	-4.8008757
120	0xbff87dc9	-1.9413387
121	0xbfb3f356	-1.4058635
122	0xc0ad74c5	-5.420504
123	0xc06d9c0a	-3.7126489
124	0x3fa39edc	1.2782855
125	0xc0295a79	-2.646147
126	0xc0a4571d	-5.135634
127	0xbfc9b7da	-1.5759232
128	0xc008bc53	-2.1364944
129	0xc08553d4	-4.166483
130	0xbfaf1225	-1.3677412
131	0xbf524dc6	-0.8214992
132	0xbfd6bf51	-1.6777135
133	0xc04642e8	-3.0978336
134	0xbffebca9	-1.9901325
135	0xc00614b5	-2.0950139
136	0xc031e7a7	-2.779764
137	0x3e417597	0.18892513
138	0xbfbc1e3c	-1.4696727
139	0xbfbd1914	-1.4773278
140	0xbfbe7c19	-1.4881622
141	0xbfce7b11	-1.6131307
142	0xc0549731	-3.321728
143	0xc08ded58	-4.4352226
144	0xc00662ba	-2.0997758
145	0xc023c719	-2.559027
146	0x3eb93e35	0.36180273
147	0xc04ab1c1	-3.1670992
148	0xbfe6bb3d	-1.802589
149	0xc00793aa	-2.1183877
150	0xbfedf5fc	-1.8590693
151	0xbf80f891	-1.0075856
152	0xc015a7a6	-2.3383574
153	0xbee5fe14	-0.4492041
154	0xbf9ed1fe	-1.2407835
155	0xc0050541	-2.0784457
156	0xbf863f7c	-1.0488124
157	0xbf96df0c	-1.1786819
158	0xbeac6d1b	-0.3367699
159	0x3feebfad	1.8652245
160	0xbfa1f63c	-1.265327
161	0xbf925d53	-1.143473
162	0xbf9dc6b4	-1.2326264
163	0xbfa3687a	-1.2766259
164	0xbf98d904	-1.1941228
165	0xbfd430c7	-1.6577386
166	0xbfb0133b	-1.3755869
167	0x3ee8aa38	0.45442367
168	0xc089ae0a	-4.302495
169	0x3e8cb4e4	0.2748176
170	0xbfbab102	-1.4585268
171	0xbff57a70	-1.917799
172	0xc0844369	-4.133229
173	0xc066b20a	-3.6046166
174	0xbfaefe1f	-1.3671302
175	0xc0515381	-3.2707217
176	0x3c4e2476	0.012581935
177	0xbe84d970	-0.25947142
178	0xc0220374	-2.5314608
179	0x3f324f35	0.6965211
180	0xc060e5e1	-3.5140307
181	0xc065086a	-3.5786386
182	0xbf4fe42c	-0.8120754
183	0xbfe3ad71	-1.7787305
184	0xbfc35556	-1.5260417
185	0xc05afaca	-3.421557
186	0xbf93d160	-1.1548271
187	0xc0364153	-2.847737
188	0xc0168d29	-2.3523657
189	0xbe956e08	-0.2918551
190	0xc043789a	-3.054236
191	0xbf5dd63e	-0.8665503
192	0xc0808144	-4.0157795
193	0xbf988b74	-1.1917558
194	0xbfd7dfa8	-1.686513
195	0xbf03fc76	-0.515571
196	0xbff5041d	-1.914188
197	0xc07bd805	-3.9350598
198	0xbfd1365c	-1.6344714
199	0x3e4185ea	0.1889874
200	0x3d8ea457	0.06964939
201	0xbfd03c9e	-1.6268499
202	0xc007c119	-2.1211607
203	0xbf719bf8	-0.94378614
204	0xbfb6d5a3	-1.4283947
205	0xc0085d9b	-2.1307132
206	0xbfbb9b74	-1.4656816
207	0xbff524e6	-1.9151886
208	0xbf5abd4f	-0.8544511
209	0xc04982b1	-3.1486018
210	0xbfc42f3e	-1.5326917
211	0xbe2dfd30	-0.16991115
212	0xc0ab0286	-5.344058
213	0xbfdb4744	-1.7131124
214	0x3e85f8eb	0.26166472
215	0xc06c759c	-3.6946783
216	0xc01beb9c	-2.4362555
217	0xc00233a7	-2.0344026
218	0xbe0c8d64	-0.13725811
219	0xbfe4d919	-1.7878753
220	0xc03e9498	-2.9778194
221	0xbfc4fa94	-1.538897
222	0xc0bf43a8	-5.977009
223	0xc01d6ce0	-2.4597702
224	0xc06f2593	-3.7366683
225	0xbfa1c767	-1.2638978
226	0xc0042882	-2.0649724
227	0xbf22a310	-0.63530064
228	0xbf021ff7	-0.50830024
229	0xc02d713a	-2.7100358
230	0xbfadec91	-1.3587819
231	0xbc93d5f4	-0.018046357
232	0xc08b018b	-4.3439384
233	0xbfb12a57	-1.3841046
234	0xbf1ff2da	-0.6247994
235	0xc010aa47	-2.260393
236	0xbf1e5ef9	-0.61863667
237	0xbfe33880	-1.7751617
238	0xbf206bd2	-0.6266452
239	0xbf051c55	-0.51996356
240	0xc06d7f01	-3.7108767
241	0xbfdfd2a0	-1.7486153
242	0xc0374820	-2.8637772
243	0xc062b3a9	-3.5422156
244	0xc01ac258	-2.4181118
245	0xc04971d1	-3.1475718
246	0xc007b459	-2.1203825
247	0xbfbe9be2	-1.4891322
248	0xc07af2e6	-3.9210753
249	0xbf9ee899	-1.2414733
250	0xbf3fd777	-0.7493815
251	0xbfbae78c	-1.4601912
252	0xc06ced90	-3.7019997
253	0xbdbd8799	-0.09254379
254	0xc06fc7ae	-3.7465625
255	0xc01daab2	-2.4635434

fc2.weight f4 [128, 256]
0	0x3d0658d9	0.032799575
1	0xbe972255	-0.2951838
2	0xbf193db9	-0.59859806
3	0x3f87e522	1.0616801
4	0xbf6a684a	-0.9156538
5	0xbea92bb9	-0.3304117
6	0xbf507d5f	-0.814413
7	0xbed31e70	-0.4123416
8	0xbf615ee4	-0.88035417
9	0xbfbd96b4	-1.4811616
10	0xbea3a5fc	-0.31962574
11	0xbf5f40bd	-0.8720816
12	0xc00f14a6	-2.2356353
13	0xbfc5c484	-1.5450597
14	0xbff2bba6	-1.8963516
15	0xbf0ee216	-0.5581373
16	0xbde77fba	-0.11303659
17	0xc01ebbc1	-2.4802096
18	0x3ea69710	0.32537127
19	0xbed8d3d4	-0.42349112
20	0xbfe828a4	-1.8137403
21	0xc0036a84	-2.0533762
22	0xbea697ed	-0.32537785
23	0xbf06e2e7	-0.52689976
24	0xbfd6e229	-1.6787769
25	0x3e896cb9	0.2684076
26	0xbf651586	-0.8948597
27	0xbcc3da0d	-0.023907686
28	0xbf690a9b	-0.9103181
29	0xbf7d96ab	-0.99058026
30	0xbe866929	-0.26252106
31	0xbdd319f9	-0.10307688
32	0xbffcc6f4	-1.9748216
33	0xbed7f350	-0.4217782
34	0x3e2e1555	0.17000325
35	0xbf5e8e38	-0.8693576
36	0xbe7fa574	-0.24965459
37	0xbf956389	-1.1671001
38	0xbe9e1779	-0.30877283
39	0xbe072352	-0.13197067
40	0xbe95301b	-0.29138264
41	0xbe5118b9	-0.20419587
42	0xc01ad56a	-2.4192758
43	0xbf0130b5	-0.50464946
44	0xbfbaf866	-1.4607055
45	0xbfd82aed	-1.68881
46	0xbfbe5865	-1.4870726
47	0xbf959fed	-1.168943
48	0x3b80fa0f	0.0039360593
49	0xbeef5fb9	-0.46752718
50	0xc03b7989	-2.929293
51	0xc0493d26	-3.1443572
52	0xbe671e7a	-0.2257022
53	0xbe9863f4	-0.29763758
54	0xbf86c834	-1.0529847
55	0xbc4042c8	-0.011734672
56	0xbf94e299	-1.1631652
57	0xbf67f3cf	-0.906064
58	0x3ed4a7fd	0.41534415
59	0x3ed558dc	0.41669357
60	0xbf2d7111	-0.6775065
61	0xbf662694	-0.89902616
62	0xbf127c49	-0.57220894
63	0xbf6aeae7	-0.9176468
64	0xbf3490a7	-0.7053322
65	0x3e29de2a	0.16588655
66	0xbf7b7a21	-0.9823323
67	0xbfa16d88	-1.2611551
68	0x3dbaaa85	0.09114555
69	0xbdadb427	-0.08481627
70	0x3f1d7ae9	0.6151567
71	0x3f144433	0.57916564
72	0xbfd73810	-1.6813984
73	0xbede063d	-0.43364134
74	0xbf8fd10c	-1.1235671
75	0xbeed6c5b	-0.4637173
76	0xbf868a47	-1.0510949
77	0x3e586fd8	0.21136415
78	0xbe84f84f	-0.25970694
79	0xbf230d32	-0.6369201
80	0xbf1a388b	-0.6024253
81	0xbf6aa653	-0.9166004
82	0xbf1e529a	-0.6184479
83	0x4004aa5c	2.072898
84	0x3ce28aad	0.027654016
85	0xbfe918e3	-1.821072
86	0xbe7cebc4	-0.24699312
87	0xbf2a61fd	-0.6655577
88	0xbd38cdc6	-0.045118116
89	0xbf0bfb74	-0.5468056
90	0x3e41ecff	0.18938063
91	0xbff44c2c	-1.9085746
92	0xbf847bb4	-1.0350251
93	0x3e10db91	0.14146258
94	0xbe9668a5	-0.29376712
95	0xbf8e6dd6	-1.1127269
96	0xbfd7832d	-1.6836907
97	0xbf10108b	-0.5627524
98	0xbf41e1aa	-0.7573496
99	0x3dd1d880	0.10246372
100	0xbf536256	-0.82571924
101	0xbf1a0b49	-0.6017347
102	0x3ee1a458	0.44070697
103	0xc0300cd5	-2.7507832
104	0xbf7b42f3	-0.9814903
105	0x3cb0c660	0.021578968
106	0xbc9ad9ca	-0.018902678
107	0xbfa65574	-1.2994828
108	0xbf0095e8	-0.5022874
109	0x3ee376b7	0.4442651
110	0x3e07f5cb	0.13277356
111	0x3e8942da	0.26808816
112	0xbeda21d0	-0.42603922
113	0xbf827221	-1.0191079
114	0xbf51544e	-0.81769264
115	0xbf09ae81	-0.53781897
116	0x3f00f300	0.5037079
117	0xbf1fb746	-0.6238903
118	0xbf6a9603	-0.9163515
119	0x3e32b637	0.17452322
120	0xbdb09430	-0.086220145
121	0x3f6c845e	0.92389476
122	0xbf4f0462	-0.8086606
123	0x3edc3cfc	0.43015277
124	0xbdf8fea9	-0.121579476
125	0x3f3d47d3	0.7393772
126	0xbf08db02	-0.5345918
127	0xbd9d5e06	-0.07683949
128	0x3f5e89dd	0.8692911
129	0xbf9b04e6	-1.211087
130	0xbe930581	-0.28715137
131	0xbfc817da	-1.5632279
132	0xbf9e5dae	-1.2372339
133	0x3e207c4f	0.1567242
134	0xbf0d46c6	-0.55186117
135	0x3dfc9ab7	0.12334197
136	0x3e98ca53	0.2984186
137	0xbf933735	-1.1501223
138	0xbf003e8c	-0.5009544
139	0xbf15d164	-0.5852263
140	0xbf9bd251	-1.2173558
141	0xbf176ace	-0.59147346
142	0xbf7788ac	-0.9669292
143	0xbf8476f6	-1.0348804
144	0xbef29da0	-0.47385883
145	0x3cbbf5f0	0.02294442
146	0xbfc92091	-1.5713063
147	0xbfc516bf	-1.5397567
148	0xbf847e8e	-1.0351121
149	0xc01f5578	-2.4895916
150	0xbfa666e1	-1.3000146
151	0x3ce64186	0.028107416
152	0xbf749ff2	-0.9555656
153	0xbf7f4670	-0.99716854
154	0xbc9de45b	-0.019273927
155	0xbedb543b	-0.428377
156	0x3ebec54e	0.37259907
157	0xbf8e1738	-1.1100836
158	0x3ea091c9	0.31361225
159	0x3e2280da	0.15869465
160	0xbfd5fe80	-1.6718292
161	0xbfa4e4ad	-1.2882286
162	0x3eff766f	0.49895045
163	0xc01fa778	-2.4945965
164	0xc02a1078	-2.6572552
165	0xbfdbb8e8	-1.7165804
166	0xbfd470df	-1.6596946
167	0xbe9a6918	-0.30158305
168	0xbf84b961	-1.0369073
169	0xbeab25ba	-0.3342722
170	0xbf8cc6bd	-1.099815
171	0xbfa8f7f2	-1.3200667
172	0x3d1102a5	0.035402913
173	0x3e87a9ad	0.2649664
174	0xbf22e4ce	-0.6363038
175	0xbe0b925b	-0.13630049
176	0xbeff14a2	-0.4982043
177	0x4009399b	2.144141
178	0xbeae20ed	-0.34009495
179	0xbf99c563	-1.2013363
180	0xbe70b03b	-0.23504727
181	0xbdc85d9c	-0.097834796
182	0xbf1325ea	-0.5747973
183	0xbfd6e4b8	-1.678855
184	0xbf5979bd	-0.8495138
185	0xbf180bc7	-0.5939297
186	0xbfdda3ff	-1.7315673
187	0x3e8524bc	0.2600459
188	0x3d12cdd0	0.03584081
189	0xbeb64ff0	-0.35607862
190	0x3f30b229	0.6902185
191	0xbf2cca43	-0.67496127
192	0xbf1204f1	-0.5703879
193	0xbe5b23e2	-0.21400407
194	0x3d801abb	0.062550984
195	0x3e992450	0.29910517
196	0xbe749863	-0.23886256
197	0xbfc68cb7	-1.5511693
198	0xbef849e4	-0.48493874
199	0xbfbba86c	-1.4660773
200	0xbd813a51	-0.06309951
201	0xbf3627a4	-0.71154237
202	0xbf5451e2	-0.82937443
203	0x3f00103a	0.5002476
204	0xbf032164	-0.51222825
205	0xbef97a37	-0.48726055
206	0xbfd3b67a	-1.6540062
207	0xbfbce9cb	-1.4758848
208	0xbf255168	-0.6457734
209	0xbe9d59a5	-0.30732456
210	0xbf34c188	-0.70607805
211	0xbf5f212e	-0.87160003
212	0xbdb099bb	-0.08623072
213	0xc00da5b2	-2.2132382
214	0xbf5c23a1	-0.85991865
215	0xbf399ef6	-0.7250818
216	0xbfc7981f	-1.5593299
217	0xbf06a8fa	-0.5260159
218	0xbf587ed4	-0.84568524
219	0x3de6bf66	0.11266975
220	0x3f02bbef	0.51068014
221	0xbf4037f0	-0.75085354
222	0xbe9bcfc5	-0.30431953
223	0xbf878ac7	-1.0589226
224	0xbe92668a	-0.28593856
225	0xbdb9fa6e	-0.09080969
226	0xc0050b79	-2.0788252
227	0xbf011541	-0.50423056
228	0xbdb974ac	-0.090554565
229	0xbf7acd9f	-0.9797
230	0xbf7f88c1	-0.99818045
231	0xbe40df89	-0.18835272
232	0xbf017251	-0.5056506
233	0xbee72d6b	-0.4515184
234	0xbf3f25d1	-0.7466708
235	0xbf1cfedc	-0.61326385
236	0x3d07db8f	0.03316837
237	0xbf6c6f00	-0.9235687
238	0x3d63ee54	0.05564721
239	0xbf8a63f4	-1.0811753
240	0xbf105767	-0.56383365
241	0xbf23694f	-0.63832563
242	0xbe9f7321	-0.31142524
243	0xbfc47a70	-1.5349865
244	0xc088f5ba	-4.279996
245	0xbf1c452d	-0.61043054
246	0xbfb42340	-1.4073257
247	0xbf1de717	-0.6168074
248	0xbeb05477	-0.34439442
249	0xbf7978dc	-0.9745004
250	0xbfecb0cf	-1.8491458
251	0xbf284cfa	-0.65742457
252	0xbf7ef2fe	-0.99589527
253	0xbf113662	-0.56723607
254	0x3f81207e	1.0088041
255	0xbf917d70	-1.1366405

fc2.bias f4 [128]
0	0xbf615e6e	-0.88034713
1	0x3fe3d0c5	1.7798086
2	0xbd706f91	-0.058700148
3	0x3f6bd07e	0.9211501
4	0x3b9898e0	0.004656896
5	0xbbfca782	-0.007710398
6	0x3f45b837	0.77234215
7	0xbd18bf6d	-0.037291933
8	0xbdaa3bc0	-0.08312178
9	0x4008f684	2.1400461
10	0x3d397a77	0.045282807
11	0xbd479f9f	-0.04873621
12	0xbeb3d23e	-0.3512134
13	0xbf6f1b36	-0.93400896
14	0x3ed6dd6d	0.4196581
15	0x3fe851c9	1.8149959
16	0xbdbab867	-0.09117203
17	0xbd544a17	-0.05182847
18	0xbd938fb2	-0.07205142
19	0x3f21f448	0.6326337
20	0x3fcf856e	1.6212595
21	0xbf37cc67	-0.7179627
22	0xbfa9f410	-1.3277607
23	0x3f0d1944	0.5511668
24	0x3f6fd992	0.9369136
25	0xbed14e61	-0.4088011
26	0xbe400a20	-0.18753862
27	0x3fa1b43e	1.263313
28	0x3cb1bcff	0.021696566
29	0xc025dba0	-2.5915298
30	0x3b15cc84	0.0022857497
31	0x3f7ffba4	0.9999335
32	0xbd3a23b0	-0.04544419
33	0xbdfc9eee	-0.12335001
34	0x3fe75821	1.807377
35	0x3cdbb171	0.02681801
36	0x4002ba97	2.0426385
37	0xbde8d80e	-0.11369334
38	0xbe120944	-0.14261347
39	0x40269933	2.6031005
40	0x3fdc1d02	1.7196352
41	0x3f7c8963	0.98647135
42	0x3fc23f69	1.5175601
43	0x405101e7	3.265741
44	0xbe9a49f3	-0.30134544
45	0xbed65aa6	-0.41866034
46	0x3f10b7a7	0.5653023
47	0x3dea9a8d	0.114552595
48	0xbd9d7548	-0.07688385
49	0xbd9f07db	-0.0776517
50	0x404d3515	3.2063649
51	0xbf4d25c0	-0.80135727
52	0xbde685eb	-0.112560116
53	0xbd74e592	-0.059789248
54	0xbfacaa6c	-1.3489509
55	0x3f380556	0.7188314
56	0xbd8bcd83	-0.068263076
57	0xc00418b9	-2.064009
58	0xbe88cd06	-0.2671892
59	0xbe99e927	-0.30060694
60	0x3f8d7a35	1.105292
61	0x3f8736cf	1.0563601
62	0x3ee4c248	0.44679475
63	0xbf95c00c	-1.1699233
64	0x3eeb75f5	0.45988432
65	0xbf8cd0d4	-1.1001229
66	0xbf2673e9	-0.65020615
67	0xbf5a1285	-0.8518451
68	0x3f449664	0.7679198
69	0xbd920ea7	-0.07131701
70	0xbf0c30c2	-0.547619
71	0x3f96bce8	1.17764
72	0x3e48cd38	0.19609535
73	0x3c036128	0.008018769
74	0xb9ba8e02	-0.0003558249
75	0x3d4ecad8	0.050486416
76	0xbfadd287	-1.3579873
77	0x3f68b25c	0.90897155
78	0x3e4394f7	0.19099794
79	0xbd37bd8c	-0.0448585
80	0xbd46ce63	-0.04853667
81	0xbcf0096a	-0.029301364
82	0x3f96ea06	1.1790168
83	0x3fa5876d	1.2931954
84	0xbfd7973e	-1.684303
85	0xbd9141bd	-0.07092617
86	0x3fa21a08	1.2664194
87	0xbfa1cb24	-1.2640119
88	0xbe461497	-0.19343792
89	0xbfb6a3e4	-1.4268765
90	0x3f2302b7	0.6367602
91	0x3f35443d	0.7080725
92	0xbff607ba	-1.9221108
93	0x3f2b8a9d	0.6700838
94	0x3fdd11a6	1.7271011
95	0x3fa25b3b	1.2684091
96	0x3cef892c	0.029240213
97	0x3f241805	0.6409915
98	0xc0088984	-2.1333933
99	0x3f7b84ce	0.9824952
100	0xbd45721f	-0.048204537
101	0x3f4d9494	0.8030484
102	0xbf0cd8f0	-0.5501852
103	0x3f5523a5	0.83257514
104	0x3f89c0f1	1.0762006
105	0xbd4067a5	-0.046973843
106	0x40039ab3	2.056317
107	0x3fef6165	1.8701597
108	0x3f2f45c2	0.68465817
109	0xbcd6bc22	-0.026212756
110	0xbf940b26	-1.1565902
111	0xbfad8cd8	-1.3558607
112	0x3f2c511a	0.6731125
113	0xbdac54d7	-0.084146194
114	0x3febbde5	1.8417326
115	0xbec15ab1	-0.37764505
116	0xbf531ae0	-0.82462883
117	0xbeab096b	-0.33405623
118	0x40b61a7e	5.690734
119	0xbcd8c30c	-0.026460193
120	0x3ed6fa0f	0.41987655
121	0x40de2158	6.9415703
122	0xbdcc3a73	-0.09972086
123	0x3ff289a7	1.8948258
124	0xbd989670	-0.07450569
125	0xbee36b9b	-0.44418034
126	0xbde5e47f	-0.11225223
127	0x3f5cbb99	0.8622375

fc3.weight f4 [2, 128]
0	0xbf753aed	-0.9579304
1	0xbf9ae235	-1.2100283
2	0xbda714e8	-0.081582844
3	0x3fa99179	1.324752
4	0x3e80d47d	0.25162116
5	0xbf95d51a	-1.1705658
6	0x3f1e9c50	0.61957264
7	0xbd9f59e5	-0.07780818
8	0xbc00ae68	-0.007854082
9	0xbf124bde	-0.57147014
10	0x3ffe316f	1.9858836
11	0x3e900558	0.28129077
12	0x4088fffb	4.2812476
13	0x401334e3	2.300103
14	0x4000b5f0	2.0111046
15	0xbffa199d	-1.9539067
16	0xbd8b6806	-0.0680695
17	0xbe1185ce	-0.14211199
18	0x3db7560a	0.089519575
19	0xc03bf6f1	-2.936947
20	0xc01d3f24	-2.4569788
21	0x405288b7	3.2895944
22	0x401ce826	2.4516692
23	0x3f0b3459	0.5437675
24	0x3fe05097	1.7524594
25	0x402d96f9	2.7123396
26	0x404e46df	3.2230756
27	0x40851508	4.1588173
28	0x3ff986f2	1.9494307
29	0x3fa5f588	1.2965555
30	0x3c390ad6	0.011294087
31	0x401b4369	2.4259894
32	0xbd0a6b88	-0.033793956
33	0xba2dad5c	-0.0006625259
34	0xc0053406	-2.0813003
35	0x3d664e26	0.056226872
36	0xbf978f6c	-1.1840644
37	0xbea861f2	-0.32887226
38	0xbf9154a9	-1.1353961
39	0xc0095245	-2.1456463
40	0xc08a1da5	-4.3161187
41	0x3f25f5dc	0.64828277
42	0x3e3bc1ed	0.18335696
43	0xc080df30	-4.0272446
44	0x3e1ef409	0.1552278
45	0x3fcf769e	1.6208074
46	0x40199fed	2.400386
47	0xbea0d80a	-0.31414825
48	0x3ff6148b	1.9225019
49	0x3d50152d	0.050801445
50	0xc06e766a	-3.7259774
51	0x401cbec9	2.4491446
52	0x3c94401b	0.018096974
53	0xbe170b80	-0.1475048
54	0x3fc90099	1.5703307
55	0xc01a1a1d	-2.4078438
56	0x3d47b79f	0.0487591
57	0x3ff0aa57	1.8801984
58	0x3f813def	1.0097026
59	0x405d1026	3.4541106
60	0xbf8946a9	-1.0724689
61	0x3ff6e0f4	1.92874
62	0xc028adb8	-2.635603
63	0x3fecfd50	1.8514805
64	0x407b9510	3.930973
65	0x402a0a28	2.65687
66	0x40605a94	3.5055285
67	0x401d0bd9	2.4538481
68	0xc043480f	-3.051273
69	0x3ddd0637	0.10792201
70	0x4003cc57	2.059347
71	0xc063f874	-3.5620394
72	0x3fa550a6	1.2915237
73	0xbdd4adc0	-0.10384703
74	0xbddb314b	-0.10702761
75	0xbf640bdb	-0.8908059
76	0x3fbba518	1.4659758
77	0xc03ee91e	-2.9829783
78	0x40eaf504	7.342409
79	0x3f735a4e	0.9505967
80	0x3d688b71	0.056773607
81	0x3d71c267	0.059023287
82	0xbf806031	-1.0029355
83	0xc02bdcc4	-2.6853495
84	0x4096ad50	4.7086563
85	0xbd91bf7a	-0.071165994
86	0xbf9ae550	-1.2101231
87	0x3fa84167	1.3144959
88	0xbea7b4da	-0.32755166
89	0x40539972	3.3062406
90	0xc01225c0	-2.283554
91	0xc034805c	-2.8203344
92	0x3f7f8369	0.9980989
93	0x3f88f7f4	1.0700669
94	0xc093f216	-4.6233015
95	0xbf740e21	-0.9533406
96	0x3d040d1a	0.032239057
97	0x3fb911ef	1.4458598
98	0xbf33bad7	-0.7020697
99	0x40034110	2.050846
100	0xbec335c7	-0.38126966
101	0xc0393f6d	-2.8944962
102	0x401d0210	2.453251
103	0x3e9bdd01	0.3044205
104	0xbfe1895f	-1.7620047
105	0xbd384a81	-0.044992927
106	0xbfaf95d6	-1.3717601
107	0x3fdf261f	1.7433509
108	0x40076f65	2.116174
109	0x3d1a0846	0.037605546
110	0x3f2cecf5	0.6754907
111	0x40487ddf	3.1326826
112	0xbf8e4f5d	-1.111797
113	0x3d95f788	0.073226035
114	0xbf2e9d7f	-0.6820907
115	0x40312218	2.767706
116	0x3fea0643	1.8283161
117	0x3ff7f0c7	1.9370354
118	0xbf9334c0	-1.1500473
119	0xbfa4658a	-1.2843487
120	0x3eafe292	0.34352547
121	0xbfa88890	-1.3166676
122	0x3d6ad610	0.057333052
123	0xbffece4b	-1.9906706
124	0x3e009db8	0.12560165
125	0x3fdb5f49	1.7138454
126	0x3d504867	0.0508503
127	0xbfb0a750	-1.380106
128	0x3f4c40d6	0.7978643
129	0x3eba1a35	0.3634812
130	0x3e862d33	0.2620636
131	0xbf1f1a34	-0.6214936
132	0x3daf5b6b	0.085623585
133	0xbf960641	-1.1720659
134	0xc097c185	-4.742373
135	0x3bb0aaf6	0.005391474
136	0xbd9fe11b	-0.07806607
137	0x3e90a3cf	0.28249976
138	0x3f0f5f3d	0.560047
139	0xbe00b0f4	-0.12567502
140	0xbf2f44b8	-0.6846423
141	0xbdd2a91f	-0.102861635
142	0xbf429d1a	-0.7602097
143	0xc009484a	-2.1450372
144	0x3e882d2d	0.26596966
145	0x3ead24f0	0.33817244
146	0xbdb4c373	-0.088263415
147	0x3efa8936	0.4893281
148	0x3db1971e	0.086714014
149	0x3dfe95ca	0.12430914
150	0xbede0bad	-0.43368283
151	0x40080bdc	2.1257238
152	0xbf25d788	-0.64782
153	0x3ed5ee53	0.4178339
154	0x3f1a9fa6	0.60399854
155	0x3ec53f7a	0.3852499
156	0xbea874e2	-0.32901675
157	0x3ea1866f	0.31547877
158	0xbc22e067	-0.009941197
159	0xbf1f3b53	-0.62199897
160	0x3eab8995	0.33503404
161	0xbdb0248d	-0.086007215
162	0xbf890bb0	-1.0706692
163	0xbc8833f2	-0.016626332
164	0x4089f301	4.3109136
165	0x3dcd4fe6	0.10025005
166	0x3e040071	0.12890793
167	0x3eff6080	0.4987831
168	0x3fff7b2c	1.9959464
169	0xc0976271	-4.730767
170	0xbf247ecd	-0.6425598
171	0x3f81d500	1.0143127
172	0xbd5e44c9	-0.054264817
173	0xbc23fb18	-0.010008596
174	0xbfc15eb5	-1.5107027
175	0xbf892e71	-1.0717298
176	0xbd1094cc	-0.035298154
177	0x3d81635e	0.06317781
178	0x3e7ce2e2	0.24695924
179	0xbf67596b	-0.90370816
180	0x3ce3d3ff	0.027811049
181	0x3c0885b2	0.008332657
182	0xbe66a132	-0.22522429
183	0x3f5851f4	0.8450005
184	0xbd8a2f34	-0.067472845
185	0x3eb4a841	0.35284618
186	0xbe68d693	-0.22738104
187	0x3c707abe	0.0146777015
188	0x3fc46128	1.534215
189	0xbeed8b69	-0.46395424
190	0xbf34bb42	-0.7059823
191	0xbf284f19	-0.65745693
192	0x3fda8ae8	1.7073641
193	0x3e0131a4	0.12616593
194	0xbf9e4b72	-1.2366774
195	0xbf735e35	-0.95065624
196	0xbe1a873d	-0.15090652
197	0x3c9bef73	0.019035077
198	0x3e4012a9	0.18757118
199	0xbe237acf	-0.15964817
200	0x3ea78703	0.32720193
201	0xbf27eef8	-0.6559901
202	0xbdacb233	-0.08432426
203	0xc007a94e	-2.1197085
204	0x3efa4f96	0.48888844
205	0xbf205e41	-0.6264382
206	0xc008d1f0	-2.1378136
207	0xbed214b3	-0.41031417
208	0xbd1d02ea	-0.038332857
209	0xbcb0a412	-0.02156261
210	0xbee29bc8	-0.44259477
211	0x3e4c4aa3	0.19950347
212	0x3f0c7fb5	0.54882365
213	0x3e394eec	0.18096513
214	0x4042dce2	3.0447316
215	0x3cd7a62f	0.02632436
216	0xbe36e58b	-0.17861001
217	0xbf16e223	-0.5893881
218	0xbec19716	-0.37810582
219	0x3f74b460	0.9558773
220	0xbc6c76d4	-0.014432628
221	0x3ecd9155	0.40149942
222	0xbeee260e	-0.46513408
223	0xbba7c5b7	-0.005120005
224	0xbd2498e2	-0.040184863
225	0xbcce09fc	-0.025151245
226	0xbf4fcbb1	-0.81170183
227	0xbec0dbf9	-0.37667826
228	0xbe6a7d4c	-0.2289936
229	0xbf03d432	-0.5149566
230	0xbed7a933	-0.42121276
231	0x4089bb13	4.304086
232	0xbf0aa9ab	-0.5416514
233	0xbe96f75a	-0.2948559
234	0x3f973286	1.1812294
235	0x3ea5b6f4	0.32366145
236	0xbfbfd594	-1.4987054
237	0xbd912f29	-0.07089073
238	0xc02b882d	-2.6801865
239	0x3e95f337	0.2928712
240	0x3c7ac2e5	0.015305256
241	0x3c30564a	0.01076276
242	0x3e942a5f	0.28938577
243	0x3f0ba348	0.5454602
244	0xbddc0452	-0.107430115
245	0xbe2dce83	-0.16973309
246	0xbd100b53	-0.03516705
247	0xbfadb5b5	-1.3571078
248	0x3fab11de	1.3364828
249	0xbe1a4a43	-0.15067391
250	0xbd6ca0c9	-0.057770524
251	0x3f754796	0.95812356
252	0xbdb0ba9b	-0.08629342
253	0x3ca8090f	0.020512132
254	0xbc7e41e1	-0.015518636
255	0x3f06cf5d	0.5266016

fc3.bias f4 [2]
0	0xc1022657	-8.13436
1	0x3f036990	0.5133295
